{"format": "graph-model", "generatedBy": "2.3.0", "convertedBy": "TensorFlow.js Converter v2.4.0", "userDefinedMetadata": {"signature": {"inputs": {"input_2:0": {"name": "input_2:0", "dtype": "DT_BOOL", "tensorShape": {"dim": [{"size": "-1"}, {"size": "384"}, {"size": "256"}, {"size": "1"}]}}, "input_1:0": {"name": "input_1:0", "dtype": "DT_FLOAT", "tensorShape": {"dim": [{"size": "-1"}, {"size": "384"}, {"size": "256"}, {"size": "3"}]}}}, "outputs": {"Identity_1:0": {"name": "Identity_1:0", "dtype": "DT_FLOAT", "tensorShape": {"dim": [{"size": "-1"}, {"size": "384"}, {"size": "256"}, {"size": "3"}]}}, "Identity:0": {"name": "Identity:0", "dtype": "DT_FLOAT", "tensorShape": {"dim": [{"size": "-1"}, {"size": "384"}, {"size": "256"}, {"size": "16"}]}}}}}, "modelTopology": {"node": [{"name": "StatefulPartitionedCall/GeoFeatureNet/ResUNet/sequential_12/residual_block_23/instance_normalization_72/moments/variance/reduction_indices", "op": "Const", "attr": {"value": {"tensor": {"dtype": "DT_INT32", "tensorShape": {"dim": [{"size": "2"}]}}}, "dtype": {"type": "DT_INT32"}}}, {"name": "StatefulPartitionedCall/GeoFeatureNet/ResUNet/sequential_12/residual_block_23/instance_normalization_72/batchnorm/add/y", "op": "Const", "attr": {"dtype": {"type": "DT_FLOAT"}, "value": {"tensor": {"dtype": "DT_FLOAT", "tensorShape": {}}}}}, {"name": "StatefulPartitionedCall/GeoFeatureNet/ResUNet/sequential_12/residual_block_23/instance_normalization_71/moments/variance/reduction_indices", "op": "Const", "attr": {"value": {"tensor": {"dtype": "DT_INT32", "tensorShape": {"dim": [{"size": "2"}]}}}, "dtype": {"type": "DT_INT32"}}}, {"name": "StatefulPartitionedCall/GeoFeatureNet/ResUNet/sequential_12/residual_block_23/instance_normalization_71/batchnorm/add/y", "op": "Const", "attr": {"dtype": {"type": "DT_FLOAT"}, "value": {"tensor": {"dtype": "DT_FLOAT", "tensorShape": {}}}}}, {"name": "StatefulPartitionedCall/GeoFeatureNet/ResUNet/sequential_12/residual_block_23/instance_normalization_71/moments/mean/reduction_indices", "op": "Const", "attr": {"dtype": {"type": "DT_INT32"}, "value": {"tensor": {"dtype": "DT_INT32", "tensorShape": {"dim": [{"size": "2"}]}}}}}, {"name": "unknown_147", "op": "Const", "attr": {"value": {"tensor": {"dtype": "DT_FLOAT", "tensorShape": {"dim": [{"size": "3"}, {"size": "3"}, {"size": "32"}, {"size": "32"}]}}}, "dtype": {"type": "DT_FLOAT"}}}, {"name": "unknown_148", "op": "Const", "attr": {"value": {"tensor": {"dtype": "DT_FLOAT", "tensorShape": {"dim": [{"size": "32"}]}}}, "dtype": {"type": "DT_FLOAT"}}}, {"name": "StatefulPartitionedCall/GeoFeatureNet/ResUNet/sequential_12/residual_block_23/instance_normalization_72/moments/mean/reduction_indices", "op": "Const", "attr": {"value": {"tensor": {"dtype": "DT_INT32", "tensorShape": {"dim": [{"size": "2"}]}}}, "dtype": {"type": "DT_INT32"}}}, {"name": "unknown_149", "op": "Const", "attr": {"dtype": {"type": "DT_FLOAT"}, "value": {"tensor": {"dtype": "DT_FLOAT", "tensorShape": {"dim": [{"size": "3"}, {"size": "3"}, {"size": "32"}, {"size": "32"}]}}}}}, {"name": "unknown_150", "op": "Const", "attr": {"value": {"tensor": {"dtype": "DT_FLOAT", "tensorShape": {"dim": [{"size": "32"}]}}}, "dtype": {"type": "DT_FLOAT"}}}, {"name": "StatefulPartitionedCall/GeoFeatureNet/ResUNet/sequential_12/residual_block_22/instance_normalization_69/moments/variance/reduction_indices", "op": "Const", "attr": {"dtype": {"type": "DT_INT32"}, "value": {"tensor": {"dtype": "DT_INT32", "tensorShape": {"dim": [{"size": "2"}]}}}}}, {"name": "StatefulPartitionedCall/GeoFeatureNet/ResUNet/sequential_12/residual_block_22/instance_normalization_69/batchnorm/add/y", "op": "Const", "attr": {"value": {"tensor": {"dtype": "DT_FLOAT", "tensorShape": {}}}, "dtype": {"type": "DT_FLOAT"}}}, {"name": "StatefulPartitionedCall/GeoFeatureNet/ResUNet/sequential_12/residual_block_22/instance_normalization_68/moments/variance/reduction_indices", "op": "Const", "attr": {"value": {"tensor": {"dtype": "DT_INT32", "tensorShape": {"dim": [{"size": "2"}]}}}, "dtype": {"type": "DT_INT32"}}}, {"name": "StatefulPartitionedCall/GeoFeatureNet/ResUNet/sequential_12/residual_block_22/instance_normalization_68/batchnorm/add/y", "op": "Const", "attr": {"value": {"tensor": {"dtype": "DT_FLOAT", "tensorShape": {}}}, "dtype": {"type": "DT_FLOAT"}}}, {"name": "StatefulPartitionedCall/GeoFeatureNet/ResUNet/sequential_12/residual_block_22/instance_normalization_68/moments/mean/reduction_indices", "op": "Const", "attr": {"dtype": {"type": "DT_INT32"}, "value": {"tensor": {"dtype": "DT_INT32", "tensorShape": {"dim": [{"size": "2"}]}}}}}, {"name": "unknown_141", "op": "Const", "attr": {"dtype": {"type": "DT_FLOAT"}, "value": {"tensor": {"dtype": "DT_FLOAT", "tensorShape": {"dim": [{"size": "3"}, {"size": "3"}, {"size": "80"}, {"size": "32"}]}}}}}, {"name": "unknown_142", "op": "Const", "attr": {"value": {"tensor": {"dtype": "DT_FLOAT", "tensorShape": {"dim": [{"size": "32"}]}}}, "dtype": {"type": "DT_FLOAT"}}}, {"name": "StatefulPartitionedCall/GeoFeatureNet/ResUNet/sequential_12/residual_block_22/instance_normalization_69/moments/mean/reduction_indices", "op": "Const", "attr": {"value": {"tensor": {"dtype": "DT_INT32", "tensorShape": {"dim": [{"size": "2"}]}}}, "dtype": {"type": "DT_INT32"}}}, {"name": "unknown_143", "op": "Const", "attr": {"dtype": {"type": "DT_FLOAT"}, "value": {"tensor": {"dtype": "DT_FLOAT", "tensorShape": {"dim": [{"size": "3"}, {"size": "3"}, {"size": "32"}, {"size": "32"}]}}}}}, {"name": "unknown_144", "op": "Const", "attr": {"dtype": {"type": "DT_FLOAT"}, "value": {"tensor": {"dtype": "DT_FLOAT", "tensorShape": {"dim": [{"size": "32"}]}}}}}, {"name": "StatefulPartitionedCall/GeoFeatureNet/ResUNet/sequential_11/residual_block_21/instance_normalization_66/moments/variance/reduction_indices", "op": "Const", "attr": {"value": {"tensor": {"dtype": "DT_INT32", "tensorShape": {"dim": [{"size": "2"}]}}}, "dtype": {"type": "DT_INT32"}}}, {"name": "StatefulPartitionedCall/GeoFeatureNet/ResUNet/sequential_11/residual_block_21/instance_normalization_66/batchnorm/add/y", "op": "Const", "attr": {"value": {"tensor": {"dtype": "DT_FLOAT", "tensorShape": {}}}, "dtype": {"type": "DT_FLOAT"}}}, {"name": "StatefulPartitionedCall/GeoFeatureNet/ResUNet/sequential_11/residual_block_21/instance_normalization_65/moments/variance/reduction_indices", "op": "Const", "attr": {"dtype": {"type": "DT_INT32"}, "value": {"tensor": {"dtype": "DT_INT32", "tensorShape": {"dim": [{"size": "2"}]}}}}}, {"name": "StatefulPartitionedCall/GeoFeatureNet/ResUNet/sequential_11/residual_block_21/instance_normalization_65/batchnorm/add/y", "op": "Const", "attr": {"value": {"tensor": {"dtype": "DT_FLOAT", "tensorShape": {}}}, "dtype": {"type": "DT_FLOAT"}}}, {"name": "StatefulPartitionedCall/GeoFeatureNet/ResUNet/sequential_11/residual_block_21/instance_normalization_65/moments/mean/reduction_indices", "op": "Const", "attr": {"value": {"tensor": {"dtype": "DT_INT32", "tensorShape": {"dim": [{"size": "2"}]}}}, "dtype": {"type": "DT_INT32"}}}, {"name": "unknown_135", "op": "Const", "attr": {"value": {"tensor": {"dtype": "DT_FLOAT", "tensorShape": {"dim": [{"size": "3"}, {"size": "3"}, {"size": "64"}, {"size": "64"}]}}}, "dtype": {"type": "DT_FLOAT"}}}, {"name": "unknown_136", "op": "Const", "attr": {"dtype": {"type": "DT_FLOAT"}, "value": {"tensor": {"dtype": "DT_FLOAT", "tensorShape": {"dim": [{"size": "64"}]}}}}}, {"name": "StatefulPartitionedCall/GeoFeatureNet/ResUNet/sequential_11/residual_block_21/instance_normalization_66/moments/mean/reduction_indices", "op": "Const", "attr": {"dtype": {"type": "DT_INT32"}, "value": {"tensor": {"dtype": "DT_INT32", "tensorShape": {"dim": [{"size": "2"}]}}}}}, {"name": "unknown_137", "op": "Const", "attr": {"value": {"tensor": {"dtype": "DT_FLOAT", "tensorShape": {"dim": [{"size": "3"}, {"size": "3"}, {"size": "64"}, {"size": "64"}]}}}, "dtype": {"type": "DT_FLOAT"}}}, {"name": "unknown_138", "op": "Const", "attr": {"value": {"tensor": {"dtype": "DT_FLOAT", "tensorShape": {"dim": [{"size": "64"}]}}}, "dtype": {"type": "DT_FLOAT"}}}, {"name": "StatefulPartitionedCall/GeoFeatureNet/ResUNet/sequential_11/residual_block_20/instance_normalization_63/moments/variance/reduction_indices", "op": "Const", "attr": {"dtype": {"type": "DT_INT32"}, "value": {"tensor": {"dtype": "DT_INT32", "tensorShape": {"dim": [{"size": "2"}]}}}}}, {"name": "StatefulPartitionedCall/GeoFeatureNet/ResUNet/sequential_11/residual_block_20/instance_normalization_63/batchnorm/add/y", "op": "Const", "attr": {"value": {"tensor": {"dtype": "DT_FLOAT", "tensorShape": {}}}, "dtype": {"type": "DT_FLOAT"}}}, {"name": "StatefulPartitionedCall/GeoFeatureNet/ResUNet/sequential_11/residual_block_20/instance_normalization_62/moments/variance/reduction_indices", "op": "Const", "attr": {"dtype": {"type": "DT_INT32"}, "value": {"tensor": {"dtype": "DT_INT32", "tensorShape": {"dim": [{"size": "2"}]}}}}}, {"name": "StatefulPartitionedCall/GeoFeatureNet/ResUNet/sequential_11/residual_block_20/instance_normalization_62/batchnorm/add/y", "op": "Const", "attr": {"value": {"tensor": {"dtype": "DT_FLOAT", "tensorShape": {}}}, "dtype": {"type": "DT_FLOAT"}}}, {"name": "StatefulPartitionedCall/GeoFeatureNet/ResUNet/sequential_11/residual_block_20/instance_normalization_62/moments/mean/reduction_indices", "op": "Const", "attr": {"dtype": {"type": "DT_INT32"}, "value": {"tensor": {"dtype": "DT_INT32", "tensorShape": {"dim": [{"size": "2"}]}}}}}, {"name": "unknown_129", "op": "Const", "attr": {"value": {"tensor": {"dtype": "DT_FLOAT", "tensorShape": {"dim": [{"size": "3"}, {"size": "3"}, {"size": "128"}, {"size": "64"}]}}}, "dtype": {"type": "DT_FLOAT"}}}, {"name": "unknown_130", "op": "Const", "attr": {"value": {"tensor": {"dtype": "DT_FLOAT", "tensorShape": {"dim": [{"size": "64"}]}}}, "dtype": {"type": "DT_FLOAT"}}}, {"name": "StatefulPartitionedCall/GeoFeatureNet/ResUNet/sequential_11/residual_block_20/instance_normalization_63/moments/mean/reduction_indices", "op": "Const", "attr": {"dtype": {"type": "DT_INT32"}, "value": {"tensor": {"dtype": "DT_INT32", "tensorShape": {"dim": [{"size": "2"}]}}}}}, {"name": "unknown_131", "op": "Const", "attr": {"value": {"tensor": {"dtype": "DT_FLOAT", "tensorShape": {"dim": [{"size": "3"}, {"size": "3"}, {"size": "64"}, {"size": "64"}]}}}, "dtype": {"type": "DT_FLOAT"}}}, {"name": "unknown_132", "op": "Const", "attr": {"value": {"tensor": {"dtype": "DT_FLOAT", "tensorShape": {"dim": [{"size": "64"}]}}}, "dtype": {"type": "DT_FLOAT"}}}, {"name": "StatefulPartitionedCall/GeoFeatureNet/ResUNet/sequential_10/residual_block_19/instance_normalization_60/moments/variance/reduction_indices", "op": "Const", "attr": {"dtype": {"type": "DT_INT32"}, "value": {"tensor": {"dtype": "DT_INT32", "tensorShape": {"dim": [{"size": "2"}]}}}}}, {"name": "StatefulPartitionedCall/GeoFeatureNet/ResUNet/sequential_10/residual_block_19/instance_normalization_60/batchnorm/add/y", "op": "Const", "attr": {"dtype": {"type": "DT_FLOAT"}, "value": {"tensor": {"dtype": "DT_FLOAT", "tensorShape": {}}}}}, {"name": "StatefulPartitionedCall/GeoFeatureNet/ResUNet/sequential_10/residual_block_19/instance_normalization_59/moments/variance/reduction_indices", "op": "Const", "attr": {"value": {"tensor": {"dtype": "DT_INT32", "tensorShape": {"dim": [{"size": "2"}]}}}, "dtype": {"type": "DT_INT32"}}}, {"name": "StatefulPartitionedCall/GeoFeatureNet/ResUNet/sequential_10/residual_block_19/instance_normalization_59/batchnorm/add/y", "op": "Const", "attr": {"dtype": {"type": "DT_FLOAT"}, "value": {"tensor": {"dtype": "DT_FLOAT", "tensorShape": {}}}}}, {"name": "StatefulPartitionedCall/GeoFeatureNet/ResUNet/sequential_10/residual_block_19/instance_normalization_59/moments/mean/reduction_indices", "op": "Const", "attr": {"value": {"tensor": {"dtype": "DT_INT32", "tensorShape": {"dim": [{"size": "2"}]}}}, "dtype": {"type": "DT_INT32"}}}, {"name": "unknown_123", "op": "Const", "attr": {"dtype": {"type": "DT_FLOAT"}, "value": {"tensor": {"dtype": "DT_FLOAT", "tensorShape": {"dim": [{"size": "3"}, {"size": "3"}, {"size": "96"}, {"size": "96"}]}}}}}, {"name": "unknown_124", "op": "Const", "attr": {"value": {"tensor": {"dtype": "DT_FLOAT", "tensorShape": {"dim": [{"size": "96"}]}}}, "dtype": {"type": "DT_FLOAT"}}}, {"name": "StatefulPartitionedCall/GeoFeatureNet/ResUNet/sequential_10/residual_block_19/instance_normalization_60/moments/mean/reduction_indices", "op": "Const", "attr": {"dtype": {"type": "DT_INT32"}, "value": {"tensor": {"dtype": "DT_INT32", "tensorShape": {"dim": [{"size": "2"}]}}}}}, {"name": "unknown_125", "op": "Const", "attr": {"dtype": {"type": "DT_FLOAT"}, "value": {"tensor": {"dtype": "DT_FLOAT", "tensorShape": {"dim": [{"size": "3"}, {"size": "3"}, {"size": "96"}, {"size": "96"}]}}}}}, {"name": "unknown_126", "op": "Const", "attr": {"value": {"tensor": {"dtype": "DT_FLOAT", "tensorShape": {"dim": [{"size": "96"}]}}}, "dtype": {"type": "DT_FLOAT"}}}, {"name": "StatefulPartitionedCall/GeoFeatureNet/ResUNet/sequential_10/residual_block_18/instance_normalization_57/moments/variance/reduction_indices", "op": "Const", "attr": {"dtype": {"type": "DT_INT32"}, "value": {"tensor": {"dtype": "DT_INT32", "tensorShape": {"dim": [{"size": "2"}]}}}}}, {"name": "StatefulPartitionedCall/GeoFeatureNet/ResUNet/sequential_10/residual_block_18/instance_normalization_57/batchnorm/add/y", "op": "Const", "attr": {"dtype": {"type": "DT_FLOAT"}, "value": {"tensor": {"dtype": "DT_FLOAT", "tensorShape": {}}}}}, {"name": "StatefulPartitionedCall/GeoFeatureNet/ResUNet/sequential_10/residual_block_18/instance_normalization_56/moments/variance/reduction_indices", "op": "Const", "attr": {"dtype": {"type": "DT_INT32"}, "value": {"tensor": {"dtype": "DT_INT32", "tensorShape": {"dim": [{"size": "2"}]}}}}}, {"name": "StatefulPartitionedCall/GeoFeatureNet/ResUNet/sequential_10/residual_block_18/instance_normalization_56/batchnorm/add/y", "op": "Const", "attr": {"dtype": {"type": "DT_FLOAT"}, "value": {"tensor": {"dtype": "DT_FLOAT", "tensorShape": {}}}}}, {"name": "StatefulPartitionedCall/GeoFeatureNet/ResUNet/sequential_10/residual_block_18/instance_normalization_56/moments/mean/reduction_indices", "op": "Const", "attr": {"value": {"tensor": {"dtype": "DT_INT32", "tensorShape": {"dim": [{"size": "2"}]}}}, "dtype": {"type": "DT_INT32"}}}, {"name": "unknown_117", "op": "Const", "attr": {"value": {"tensor": {"dtype": "DT_FLOAT", "tensorShape": {"dim": [{"size": "3"}, {"size": "3"}, {"size": "192"}, {"size": "96"}]}}}, "dtype": {"type": "DT_FLOAT"}}}, {"name": "unknown_118", "op": "Const", "attr": {"dtype": {"type": "DT_FLOAT"}, "value": {"tensor": {"dtype": "DT_FLOAT", "tensorShape": {"dim": [{"size": "96"}]}}}}}, {"name": "StatefulPartitionedCall/GeoFeatureNet/ResUNet/sequential_10/residual_block_18/instance_normalization_57/moments/mean/reduction_indices", "op": "Const", "attr": {"dtype": {"type": "DT_INT32"}, "value": {"tensor": {"dtype": "DT_INT32", "tensorShape": {"dim": [{"size": "2"}]}}}}}, {"name": "unknown_119", "op": "Const", "attr": {"dtype": {"type": "DT_FLOAT"}, "value": {"tensor": {"dtype": "DT_FLOAT", "tensorShape": {"dim": [{"size": "3"}, {"size": "3"}, {"size": "96"}, {"size": "96"}]}}}}}, {"name": "unknown_120", "op": "Const", "attr": {"value": {"tensor": {"dtype": "DT_FLOAT", "tensorShape": {"dim": [{"size": "96"}]}}}, "dtype": {"type": "DT_FLOAT"}}}, {"name": "StatefulPartitionedCall/GeoFeatureNet/ResUNet/sequential_9/residual_block_17/instance_normalization_54/moments/variance/reduction_indices", "op": "Const", "attr": {"value": {"tensor": {"dtype": "DT_INT32", "tensorShape": {"dim": [{"size": "2"}]}}}, "dtype": {"type": "DT_INT32"}}}, {"name": "StatefulPartitionedCall/GeoFeatureNet/ResUNet/sequential_9/residual_block_17/instance_normalization_54/batchnorm/add/y", "op": "Const", "attr": {"dtype": {"type": "DT_FLOAT"}, "value": {"tensor": {"dtype": "DT_FLOAT", "tensorShape": {}}}}}, {"name": "StatefulPartitionedCall/GeoFeatureNet/ResUNet/sequential_9/residual_block_17/instance_normalization_53/moments/variance/reduction_indices", "op": "Const", "attr": {"dtype": {"type": "DT_INT32"}, "value": {"tensor": {"dtype": "DT_INT32", "tensorShape": {"dim": [{"size": "2"}]}}}}}, {"name": "StatefulPartitionedCall/GeoFeatureNet/ResUNet/sequential_9/residual_block_17/instance_normalization_53/batchnorm/add/y", "op": "Const", "attr": {"dtype": {"type": "DT_FLOAT"}, "value": {"tensor": {"dtype": "DT_FLOAT", "tensorShape": {}}}}}, {"name": "StatefulPartitionedCall/GeoFeatureNet/ResUNet/sequential_9/residual_block_17/instance_normalization_53/moments/mean/reduction_indices", "op": "Const", "attr": {"value": {"tensor": {"dtype": "DT_INT32", "tensorShape": {"dim": [{"size": "2"}]}}}, "dtype": {"type": "DT_INT32"}}}, {"name": "unknown_111", "op": "Const", "attr": {"value": {"tensor": {"dtype": "DT_FLOAT", "tensorShape": {"dim": [{"size": "3"}, {"size": "3"}, {"size": "128"}, {"size": "128"}]}}}, "dtype": {"type": "DT_FLOAT"}}}, {"name": "unknown_112", "op": "Const", "attr": {"value": {"tensor": {"dtype": "DT_FLOAT", "tensorShape": {"dim": [{"size": "128"}]}}}, "dtype": {"type": "DT_FLOAT"}}}, {"name": "StatefulPartitionedCall/GeoFeatureNet/ResUNet/sequential_9/residual_block_17/instance_normalization_54/moments/mean/reduction_indices", "op": "Const", "attr": {"value": {"tensor": {"dtype": "DT_INT32", "tensorShape": {"dim": [{"size": "2"}]}}}, "dtype": {"type": "DT_INT32"}}}, {"name": "unknown_113", "op": "Const", "attr": {"dtype": {"type": "DT_FLOAT"}, "value": {"tensor": {"dtype": "DT_FLOAT", "tensorShape": {"dim": [{"size": "3"}, {"size": "3"}, {"size": "128"}, {"size": "128"}]}}}}}, {"name": "unknown_114", "op": "Const", "attr": {"value": {"tensor": {"dtype": "DT_FLOAT", "tensorShape": {"dim": [{"size": "128"}]}}}, "dtype": {"type": "DT_FLOAT"}}}, {"name": "StatefulPartitionedCall/GeoFeatureNet/ResUNet/sequential_9/residual_block_16/instance_normalization_51/moments/variance/reduction_indices", "op": "Const", "attr": {"value": {"tensor": {"dtype": "DT_INT32", "tensorShape": {"dim": [{"size": "2"}]}}}, "dtype": {"type": "DT_INT32"}}}, {"name": "StatefulPartitionedCall/GeoFeatureNet/ResUNet/sequential_9/residual_block_16/instance_normalization_51/batchnorm/add/y", "op": "Const", "attr": {"value": {"tensor": {"dtype": "DT_FLOAT", "tensorShape": {}}}, "dtype": {"type": "DT_FLOAT"}}}, {"name": "StatefulPartitionedCall/GeoFeatureNet/ResUNet/sequential_9/residual_block_16/instance_normalization_50/moments/variance/reduction_indices", "op": "Const", "attr": {"dtype": {"type": "DT_INT32"}, "value": {"tensor": {"dtype": "DT_INT32", "tensorShape": {"dim": [{"size": "2"}]}}}}}, {"name": "StatefulPartitionedCall/GeoFeatureNet/ResUNet/sequential_9/residual_block_16/instance_normalization_50/batchnorm/add/y", "op": "Const", "attr": {"dtype": {"type": "DT_FLOAT"}, "value": {"tensor": {"dtype": "DT_FLOAT", "tensorShape": {}}}}}, {"name": "StatefulPartitionedCall/GeoFeatureNet/ResUNet/sequential_9/residual_block_16/instance_normalization_50/moments/mean/reduction_indices", "op": "Const", "attr": {"value": {"tensor": {"dtype": "DT_INT32", "tensorShape": {"dim": [{"size": "2"}]}}}, "dtype": {"type": "DT_INT32"}}}, {"name": "unknown_105", "op": "Const", "attr": {"dtype": {"type": "DT_FLOAT"}, "value": {"tensor": {"dtype": "DT_FLOAT", "tensorShape": {"dim": [{"size": "3"}, {"size": "3"}, {"size": "224"}, {"size": "128"}]}}}}}, {"name": "unknown_106", "op": "Const", "attr": {"dtype": {"type": "DT_FLOAT"}, "value": {"tensor": {"dtype": "DT_FLOAT", "tensorShape": {"dim": [{"size": "128"}]}}}}}, {"name": "StatefulPartitionedCall/GeoFeatureNet/ResUNet/sequential_9/residual_block_16/instance_normalization_51/moments/mean/reduction_indices", "op": "Const", "attr": {"value": {"tensor": {"dtype": "DT_INT32", "tensorShape": {"dim": [{"size": "2"}]}}}, "dtype": {"type": "DT_INT32"}}}, {"name": "unknown_107", "op": "Const", "attr": {"dtype": {"type": "DT_FLOAT"}, "value": {"tensor": {"dtype": "DT_FLOAT", "tensorShape": {"dim": [{"size": "3"}, {"size": "3"}, {"size": "128"}, {"size": "128"}]}}}}}, {"name": "unknown_108", "op": "Const", "attr": {"dtype": {"type": "DT_FLOAT"}, "value": {"tensor": {"dtype": "DT_FLOAT", "tensorShape": {"dim": [{"size": "128"}]}}}}}, {"name": "StatefulPartitionedCall/GeoFeatureNet/ResUNet/sequential_8/residual_block_15/instance_normalization_48/moments/variance/reduction_indices", "op": "Const", "attr": {"value": {"tensor": {"dtype": "DT_INT32", "tensorShape": {"dim": [{"size": "2"}]}}}, "dtype": {"type": "DT_INT32"}}}, {"name": "StatefulPartitionedCall/GeoFeatureNet/ResUNet/sequential_8/residual_block_15/instance_normalization_48/batchnorm/add/y", "op": "Const", "attr": {"value": {"tensor": {"dtype": "DT_FLOAT", "tensorShape": {}}}, "dtype": {"type": "DT_FLOAT"}}}, {"name": "StatefulPartitionedCall/GeoFeatureNet/ResUNet/sequential_8/residual_block_15/instance_normalization_47/moments/variance/reduction_indices", "op": "Const", "attr": {"dtype": {"type": "DT_INT32"}, "value": {"tensor": {"dtype": "DT_INT32", "tensorShape": {"dim": [{"size": "2"}]}}}}}, {"name": "StatefulPartitionedCall/GeoFeatureNet/ResUNet/sequential_8/residual_block_15/instance_normalization_47/batchnorm/add/y", "op": "Const", "attr": {"dtype": {"type": "DT_FLOAT"}, "value": {"tensor": {"dtype": "DT_FLOAT", "tensorShape": {}}}}}, {"name": "StatefulPartitionedCall/GeoFeatureNet/ResUNet/sequential_8/residual_block_15/instance_normalization_47/moments/mean/reduction_indices", "op": "Const", "attr": {"dtype": {"type": "DT_INT32"}, "value": {"tensor": {"dtype": "DT_INT32", "tensorShape": {"dim": [{"size": "2"}]}}}}}, {"name": "unknown_99", "op": "Const", "attr": {"dtype": {"type": "DT_FLOAT"}, "value": {"tensor": {"dtype": "DT_FLOAT", "tensorShape": {"dim": [{"size": "3"}, {"size": "3"}, {"size": "128"}, {"size": "128"}]}}}}}, {"name": "unknown_100", "op": "Const", "attr": {"value": {"tensor": {"dtype": "DT_FLOAT", "tensorShape": {"dim": [{"size": "128"}]}}}, "dtype": {"type": "DT_FLOAT"}}}, {"name": "StatefulPartitionedCall/GeoFeatureNet/ResUNet/sequential_8/residual_block_15/instance_normalization_48/moments/mean/reduction_indices", "op": "Const", "attr": {"value": {"tensor": {"dtype": "DT_INT32", "tensorShape": {"dim": [{"size": "2"}]}}}, "dtype": {"type": "DT_INT32"}}}, {"name": "unknown_101", "op": "Const", "attr": {"value": {"tensor": {"dtype": "DT_FLOAT", "tensorShape": {"dim": [{"size": "3"}, {"size": "3"}, {"size": "128"}, {"size": "128"}]}}}, "dtype": {"type": "DT_FLOAT"}}}, {"name": "unknown_102", "op": "Const", "attr": {"dtype": {"type": "DT_FLOAT"}, "value": {"tensor": {"dtype": "DT_FLOAT", "tensorShape": {"dim": [{"size": "128"}]}}}}}, {"name": "StatefulPartitionedCall/GeoFeatureNet/ResUNet/sequential_8/residual_block_14/instance_normalization_45/moments/variance/reduction_indices", "op": "Const", "attr": {"dtype": {"type": "DT_INT32"}, "value": {"tensor": {"dtype": "DT_INT32", "tensorShape": {"dim": [{"size": "2"}]}}}}}, {"name": "StatefulPartitionedCall/GeoFeatureNet/ResUNet/sequential_8/residual_block_14/instance_normalization_45/batchnorm/add/y", "op": "Const", "attr": {"dtype": {"type": "DT_FLOAT"}, "value": {"tensor": {"dtype": "DT_FLOAT", "tensorShape": {}}}}}, {"name": "StatefulPartitionedCall/GeoFeatureNet/ResUNet/sequential_8/residual_block_14/instance_normalization_44/moments/variance/reduction_indices", "op": "Const", "attr": {"dtype": {"type": "DT_INT32"}, "value": {"tensor": {"dtype": "DT_INT32", "tensorShape": {"dim": [{"size": "2"}]}}}}}, {"name": "StatefulPartitionedCall/GeoFeatureNet/ResUNet/sequential_8/residual_block_14/instance_normalization_44/batchnorm/add/y", "op": "Const", "attr": {"value": {"tensor": {"dtype": "DT_FLOAT", "tensorShape": {}}}, "dtype": {"type": "DT_FLOAT"}}}, {"name": "StatefulPartitionedCall/GeoFeatureNet/ResUNet/sequential_8/residual_block_14/instance_normalization_44/moments/mean/reduction_indices", "op": "Const", "attr": {"dtype": {"type": "DT_INT32"}, "value": {"tensor": {"dtype": "DT_INT32", "tensorShape": {"dim": [{"size": "2"}]}}}}}, {"name": "unknown_93", "op": "Const", "attr": {"dtype": {"type": "DT_FLOAT"}, "value": {"tensor": {"dtype": "DT_FLOAT", "tensorShape": {"dim": [{"size": "3"}, {"size": "3"}, {"size": "324"}, {"size": "128"}]}}}}}, {"name": "unknown_94", "op": "Const", "attr": {"value": {"tensor": {"dtype": "DT_FLOAT", "tensorShape": {"dim": [{"size": "128"}]}}}, "dtype": {"type": "DT_FLOAT"}}}, {"name": "StatefulPartitionedCall/GeoFeatureNet/ResUNet/sequential_8/residual_block_14/instance_normalization_45/moments/mean/reduction_indices", "op": "Const", "attr": {"dtype": {"type": "DT_INT32"}, "value": {"tensor": {"dtype": "DT_INT32", "tensorShape": {"dim": [{"size": "2"}]}}}}}, {"name": "unknown_95", "op": "Const", "attr": {"dtype": {"type": "DT_FLOAT"}, "value": {"tensor": {"dtype": "DT_FLOAT", "tensorShape": {"dim": [{"size": "3"}, {"size": "3"}, {"size": "128"}, {"size": "128"}]}}}}}, {"name": "unknown_96", "op": "Const", "attr": {"dtype": {"type": "DT_FLOAT"}, "value": {"tensor": {"dtype": "DT_FLOAT", "tensorShape": {"dim": [{"size": "128"}]}}}}}, {"name": "StatefulPartitionedCall/GeoFeatureNet/ResUNet/sequential_7/residual_block_13/instance_normalization_42/moments/variance/reduction_indices", "op": "Const", "attr": {"dtype": {"type": "DT_INT32"}, "value": {"tensor": {"dtype": "DT_INT32", "tensorShape": {"dim": [{"size": "2"}]}}}}}, {"name": "StatefulPartitionedCall/GeoFeatureNet/ResUNet/sequential_7/residual_block_13/instance_normalization_42/batchnorm/add/y", "op": "Const", "attr": {"value": {"tensor": {"dtype": "DT_FLOAT", "tensorShape": {}}}, "dtype": {"type": "DT_FLOAT"}}}, {"name": "StatefulPartitionedCall/GeoFeatureNet/ResUNet/sequential_7/residual_block_13/instance_normalization_41/moments/variance/reduction_indices", "op": "Const", "attr": {"dtype": {"type": "DT_INT32"}, "value": {"tensor": {"dtype": "DT_INT32", "tensorShape": {"dim": [{"size": "2"}]}}}}}, {"name": "StatefulPartitionedCall/GeoFeatureNet/ResUNet/sequential_7/residual_block_13/instance_normalization_41/batchnorm/add/y", "op": "Const", "attr": {"value": {"tensor": {"dtype": "DT_FLOAT", "tensorShape": {}}}, "dtype": {"type": "DT_FLOAT"}}}, {"name": "StatefulPartitionedCall/GeoFeatureNet/ResUNet/sequential_7/residual_block_13/instance_normalization_41/moments/mean/reduction_indices", "op": "Const", "attr": {"value": {"tensor": {"dtype": "DT_INT32", "tensorShape": {"dim": [{"size": "2"}]}}}, "dtype": {"type": "DT_INT32"}}}, {"name": "unknown_87", "op": "Const", "attr": {"value": {"tensor": {"dtype": "DT_FLOAT", "tensorShape": {"dim": [{"size": "3"}, {"size": "3"}, {"size": "196"}, {"size": "196"}]}}}, "dtype": {"type": "DT_FLOAT"}}}, {"name": "unknown_88", "op": "Const", "attr": {"dtype": {"type": "DT_FLOAT"}, "value": {"tensor": {"dtype": "DT_FLOAT", "tensorShape": {"dim": [{"size": "196"}]}}}}}, {"name": "StatefulPartitionedCall/GeoFeatureNet/ResUNet/sequential_7/residual_block_13/instance_normalization_42/moments/mean/reduction_indices", "op": "Const", "attr": {"dtype": {"type": "DT_INT32"}, "value": {"tensor": {"dtype": "DT_INT32", "tensorShape": {"dim": [{"size": "2"}]}}}}}, {"name": "unknown_89", "op": "Const", "attr": {"value": {"tensor": {"dtype": "DT_FLOAT", "tensorShape": {"dim": [{"size": "3"}, {"size": "3"}, {"size": "196"}, {"size": "196"}]}}}, "dtype": {"type": "DT_FLOAT"}}}, {"name": "unknown_90", "op": "Const", "attr": {"dtype": {"type": "DT_FLOAT"}, "value": {"tensor": {"dtype": "DT_FLOAT", "tensorShape": {"dim": [{"size": "196"}]}}}}}, {"name": "StatefulPartitionedCall/GeoFeatureNet/ResUNet/sequential_7/residual_block_12/instance_normalization_39/moments/variance/reduction_indices", "op": "Const", "attr": {"value": {"tensor": {"dtype": "DT_INT32", "tensorShape": {"dim": [{"size": "2"}]}}}, "dtype": {"type": "DT_INT32"}}}, {"name": "StatefulPartitionedCall/GeoFeatureNet/ResUNet/sequential_7/residual_block_12/instance_normalization_39/batchnorm/add/y", "op": "Const", "attr": {"value": {"tensor": {"dtype": "DT_FLOAT", "tensorShape": {}}}, "dtype": {"type": "DT_FLOAT"}}}, {"name": "StatefulPartitionedCall/GeoFeatureNet/ResUNet/sequential_7/residual_block_12/instance_normalization_38/moments/variance/reduction_indices", "op": "Const", "attr": {"value": {"tensor": {"dtype": "DT_INT32", "tensorShape": {"dim": [{"size": "2"}]}}}, "dtype": {"type": "DT_INT32"}}}, {"name": "StatefulPartitionedCall/GeoFeatureNet/ResUNet/sequential_7/residual_block_12/instance_normalization_38/batchnorm/add/y", "op": "Const", "attr": {"dtype": {"type": "DT_FLOAT"}, "value": {"tensor": {"dtype": "DT_FLOAT", "tensorShape": {}}}}}, {"name": "StatefulPartitionedCall/GeoFeatureNet/ResUNet/sequential_7/residual_block_12/instance_normalization_38/moments/mean/reduction_indices", "op": "Const", "attr": {"dtype": {"type": "DT_INT32"}, "value": {"tensor": {"dtype": "DT_INT32", "tensorShape": {"dim": [{"size": "2"}]}}}}}, {"name": "unknown_81", "op": "Const", "attr": {"dtype": {"type": "DT_FLOAT"}, "value": {"tensor": {"dtype": "DT_FLOAT", "tensorShape": {"dim": [{"size": "3"}, {"size": "3"}, {"size": "324"}, {"size": "196"}]}}}}}, {"name": "unknown_82", "op": "Const", "attr": {"dtype": {"type": "DT_FLOAT"}, "value": {"tensor": {"dtype": "DT_FLOAT", "tensorShape": {"dim": [{"size": "196"}]}}}}}, {"name": "StatefulPartitionedCall/GeoFeatureNet/ResUNet/sequential_7/residual_block_12/instance_normalization_39/moments/mean/reduction_indices", "op": "Const", "attr": {"value": {"tensor": {"dtype": "DT_INT32", "tensorShape": {"dim": [{"size": "2"}]}}}, "dtype": {"type": "DT_INT32"}}}, {"name": "unknown_83", "op": "Const", "attr": {"value": {"tensor": {"dtype": "DT_FLOAT", "tensorShape": {"dim": [{"size": "3"}, {"size": "3"}, {"size": "196"}, {"size": "196"}]}}}, "dtype": {"type": "DT_FLOAT"}}}, {"name": "unknown_84", "op": "Const", "attr": {"dtype": {"type": "DT_FLOAT"}, "value": {"tensor": {"dtype": "DT_FLOAT", "tensorShape": {"dim": [{"size": "196"}]}}}}}, {"name": "StatefulPartitionedCall/GeoFeatureNet/ResUNet/sequential_14/instance_normalization_75/moments/variance/reduction_indices", "op": "Const", "attr": {"value": {"tensor": {"dtype": "DT_INT32", "tensorShape": {"dim": [{"size": "2"}]}}}, "dtype": {"type": "DT_INT32"}}}, {"name": "StatefulPartitionedCall/GeoFeatureNet/ResUNet/sequential_14/instance_normalization_75/batchnorm/add/y", "op": "Const", "attr": {"dtype": {"type": "DT_FLOAT"}, "value": {"tensor": {"dtype": "DT_FLOAT", "tensorShape": {}}}}}, {"name": "StatefulPartitionedCall/GeoFeatureNet/ResUNet/sequential_13/instance_normalization_74/moments/variance/reduction_indices", "op": "Const", "attr": {"dtype": {"type": "DT_INT32"}, "value": {"tensor": {"dtype": "DT_INT32", "tensorShape": {"dim": [{"size": "2"}]}}}}}, {"name": "StatefulPartitionedCall/GeoFeatureNet/ResUNet/sequential_13/instance_normalization_74/batchnorm/add/y", "op": "Const", "attr": {"value": {"tensor": {"dtype": "DT_FLOAT", "tensorShape": {}}}, "dtype": {"type": "DT_FLOAT"}}}, {"name": "StatefulPartitionedCall/GeoFeatureNet/ResUNet/sequential_6/residual_block_11/instance_normalization_36/moments/variance/reduction_indices", "op": "Const", "attr": {"dtype": {"type": "DT_INT32"}, "value": {"tensor": {"dtype": "DT_INT32", "tensorShape": {"dim": [{"size": "2"}]}}}}}, {"name": "StatefulPartitionedCall/GeoFeatureNet/ResUNet/sequential_6/residual_block_11/instance_normalization_36/batchnorm/add/y", "op": "Const", "attr": {"value": {"tensor": {"dtype": "DT_FLOAT", "tensorShape": {}}}, "dtype": {"type": "DT_FLOAT"}}}, {"name": "StatefulPartitionedCall/GeoFeatureNet/ResUNet/sequential_6/residual_block_11/instance_normalization_35/moments/variance/reduction_indices", "op": "Const", "attr": {"value": {"tensor": {"dtype": "DT_INT32", "tensorShape": {"dim": [{"size": "2"}]}}}, "dtype": {"type": "DT_INT32"}}}, {"name": "StatefulPartitionedCall/GeoFeatureNet/ResUNet/sequential_6/residual_block_11/instance_normalization_35/batchnorm/add/y", "op": "Const", "attr": {"dtype": {"type": "DT_FLOAT"}, "value": {"tensor": {"dtype": "DT_FLOAT", "tensorShape": {}}}}}, {"name": "StatefulPartitionedCall/GeoFeatureNet/ResUNet/sequential_6/residual_block_11/instance_normalization_35/moments/mean/reduction_indices", "op": "Const", "attr": {"dtype": {"type": "DT_INT32"}, "value": {"tensor": {"dtype": "DT_INT32", "tensorShape": {"dim": [{"size": "2"}]}}}}}, {"name": "unknown_71", "op": "Const", "attr": {"dtype": {"type": "DT_FLOAT"}, "value": {"tensor": {"dtype": "DT_FLOAT", "tensorShape": {"dim": [{"size": "3"}, {"size": "3"}, {"size": "196"}, {"size": "196"}]}}}}}, {"name": "unknown_72", "op": "Const", "attr": {"value": {"tensor": {"dtype": "DT_FLOAT", "tensorShape": {"dim": [{"size": "196"}]}}}, "dtype": {"type": "DT_FLOAT"}}}, {"name": "StatefulPartitionedCall/GeoFeatureNet/ResUNet/sequential_6/residual_block_11/instance_normalization_36/moments/mean/reduction_indices", "op": "Const", "attr": {"dtype": {"type": "DT_INT32"}, "value": {"tensor": {"dtype": "DT_INT32", "tensorShape": {"dim": [{"size": "2"}]}}}}}, {"name": "unknown_73", "op": "Const", "attr": {"dtype": {"type": "DT_FLOAT"}, "value": {"tensor": {"dtype": "DT_FLOAT", "tensorShape": {"dim": [{"size": "3"}, {"size": "3"}, {"size": "196"}, {"size": "196"}]}}}}}, {"name": "unknown_74", "op": "Const", "attr": {"value": {"tensor": {"dtype": "DT_FLOAT", "tensorShape": {"dim": [{"size": "196"}]}}}, "dtype": {"type": "DT_FLOAT"}}}, {"name": "StatefulPartitionedCall/GeoFeatureNet/ResUNet/sequential_6/residual_block_11/instance_normalization_37/moments/variance/reduction_indices", "op": "Const", "attr": {"dtype": {"type": "DT_INT32"}, "value": {"tensor": {"dtype": "DT_INT32", "tensorShape": {"dim": [{"size": "2"}]}}}}}, {"name": "StatefulPartitionedCall/GeoFeatureNet/ResUNet/sequential_6/residual_block_11/instance_normalization_37/batchnorm/add/y", "op": "Const", "attr": {"value": {"tensor": {"dtype": "DT_FLOAT", "tensorShape": {}}}, "dtype": {"type": "DT_FLOAT"}}}, {"name": "StatefulPartitionedCall/GeoFeatureNet/ResUNet/sequential_6/residual_block_10/instance_normalization_33/moments/variance/reduction_indices", "op": "Const", "attr": {"dtype": {"type": "DT_INT32"}, "value": {"tensor": {"dtype": "DT_INT32", "tensorShape": {"dim": [{"size": "2"}]}}}}}, {"name": "StatefulPartitionedCall/GeoFeatureNet/ResUNet/sequential_6/residual_block_10/instance_normalization_33/batchnorm/add/y", "op": "Const", "attr": {"value": {"tensor": {"dtype": "DT_FLOAT", "tensorShape": {}}}, "dtype": {"type": "DT_FLOAT"}}}, {"name": "StatefulPartitionedCall/GeoFeatureNet/ResUNet/sequential_6/residual_block_10/instance_normalization_32/moments/variance/reduction_indices", "op": "Const", "attr": {"value": {"tensor": {"dtype": "DT_INT32", "tensorShape": {"dim": [{"size": "2"}]}}}, "dtype": {"type": "DT_INT32"}}}, {"name": "StatefulPartitionedCall/GeoFeatureNet/ResUNet/sequential_6/residual_block_10/instance_normalization_32/batchnorm/add/y", "op": "Const", "attr": {"value": {"tensor": {"dtype": "DT_FLOAT", "tensorShape": {}}}, "dtype": {"type": "DT_FLOAT"}}}, {"name": "StatefulPartitionedCall/GeoFeatureNet/ResUNet/sequential_6/residual_block_10/instance_normalization_32/moments/mean/reduction_indices", "op": "Const", "attr": {"value": {"tensor": {"dtype": "DT_INT32", "tensorShape": {"dim": [{"size": "2"}]}}}, "dtype": {"type": "DT_INT32"}}}, {"name": "unknown_65", "op": "Const", "attr": {"value": {"tensor": {"dtype": "DT_FLOAT", "tensorShape": {"dim": [{"size": "3"}, {"size": "3"}, {"size": "128"}, {"size": "196"}]}}}, "dtype": {"type": "DT_FLOAT"}}}, {"name": "unknown_66", "op": "Const", "attr": {"dtype": {"type": "DT_FLOAT"}, "value": {"tensor": {"dtype": "DT_FLOAT", "tensorShape": {"dim": [{"size": "196"}]}}}}}, {"name": "StatefulPartitionedCall/GeoFeatureNet/ResUNet/sequential_6/residual_block_10/instance_normalization_33/moments/mean/reduction_indices", "op": "Const", "attr": {"dtype": {"type": "DT_INT32"}, "value": {"tensor": {"dtype": "DT_INT32", "tensorShape": {"dim": [{"size": "2"}]}}}}}, {"name": "unknown_67", "op": "Const", "attr": {"dtype": {"type": "DT_FLOAT"}, "value": {"tensor": {"dtype": "DT_FLOAT", "tensorShape": {"dim": [{"size": "3"}, {"size": "3"}, {"size": "196"}, {"size": "196"}]}}}}}, {"name": "unknown_68", "op": "Const", "attr": {"value": {"tensor": {"dtype": "DT_FLOAT", "tensorShape": {"dim": [{"size": "196"}]}}}, "dtype": {"type": "DT_FLOAT"}}}, {"name": "unknown_69", "op": "Const", "attr": {"value": {"tensor": {"dtype": "DT_FLOAT", "tensorShape": {"dim": [{"size": "1"}, {"size": "1"}, {"size": "128"}, {"size": "196"}]}}}, "dtype": {"type": "DT_FLOAT"}}}, {"name": "unknown_70", "op": "Const", "attr": {"value": {"tensor": {"dtype": "DT_FLOAT", "tensorShape": {"dim": [{"size": "196"}]}}}, "dtype": {"type": "DT_FLOAT"}}}, {"name": "StatefulPartitionedCall/GeoFeatureNet/ResUNet/sequential_6/residual_block_10/instance_normalization_34/moments/mean/reduction_indices", "op": "Const", "attr": {"value": {"tensor": {"dtype": "DT_INT32", "tensorShape": {"dim": [{"size": "2"}]}}}, "dtype": {"type": "DT_INT32"}}}, {"name": "StatefulPartitionedCall/GeoFeatureNet/ResUNet/sequential_6/residual_block_10/instance_normalization_34/moments/variance/reduction_indices", "op": "Const", "attr": {"value": {"tensor": {"dtype": "DT_INT32", "tensorShape": {"dim": [{"size": "2"}]}}}, "dtype": {"type": "DT_INT32"}}}, {"name": "StatefulPartitionedCall/GeoFeatureNet/ResUNet/sequential_6/residual_block_10/instance_normalization_34/batchnorm/add/y", "op": "Const", "attr": {"dtype": {"type": "DT_FLOAT"}, "value": {"tensor": {"dtype": "DT_FLOAT", "tensorShape": {}}}}}, {"name": "unknown_75", "op": "Const", "attr": {"value": {"tensor": {"dtype": "DT_FLOAT", "tensorShape": {"dim": [{"size": "1"}, {"size": "1"}, {"size": "196"}, {"size": "196"}]}}}, "dtype": {"type": "DT_FLOAT"}}}, {"name": "unknown_76", "op": "Const", "attr": {"value": {"tensor": {"dtype": "DT_FLOAT", "tensorShape": {"dim": [{"size": "196"}]}}}, "dtype": {"type": "DT_FLOAT"}}}, {"name": "StatefulPartitionedCall/GeoFeatureNet/ResUNet/sequential_6/residual_block_11/instance_normalization_37/moments/mean/reduction_indices", "op": "Const", "attr": {"value": {"tensor": {"dtype": "DT_INT32", "tensorShape": {"dim": [{"size": "2"}]}}}, "dtype": {"type": "DT_INT32"}}}, {"name": "StatefulPartitionedCall/GeoFeatureNet/ResUNet/sequential_13/instance_normalization_74/moments/mean/reduction_indices", "op": "Const", "attr": {"dtype": {"type": "DT_INT32"}, "value": {"tensor": {"dtype": "DT_INT32", "tensorShape": {"dim": [{"size": "2"}]}}}}}, {"name": "unknown_77", "op": "Const", "attr": {"dtype": {"type": "DT_FLOAT"}, "value": {"tensor": {"dtype": "DT_FLOAT", "tensorShape": {"dim": [{"size": "3"}, {"size": "3"}, {"size": "196"}, {"size": "196"}]}}}}}, {"name": "unknown_78", "op": "Const", "attr": {"value": {"tensor": {"dtype": "DT_FLOAT", "tensorShape": {"dim": [{"size": "196"}]}}}, "dtype": {"type": "DT_FLOAT"}}}, {"name": "StatefulPartitionedCall/GeoFeatureNet/ResUNet/sequential_14/instance_normalization_75/moments/mean/reduction_indices", "op": "Const", "attr": {"value": {"tensor": {"dtype": "DT_INT32", "tensorShape": {"dim": [{"size": "2"}]}}}, "dtype": {"type": "DT_INT32"}}}, {"name": "unknown_79", "op": "Const", "attr": {"dtype": {"type": "DT_FLOAT"}, "value": {"tensor": {"dtype": "DT_FLOAT", "tensorShape": {"dim": [{"size": "3"}, {"size": "3"}, {"size": "196"}, {"size": "196"}]}}}}}, {"name": "unknown_80", "op": "Const", "attr": {"value": {"tensor": {"dtype": "DT_FLOAT", "tensorShape": {"dim": [{"size": "196"}]}}}, "dtype": {"type": "DT_FLOAT"}}}, {"name": "StatefulPartitionedCall/GeoFeatureNet/ResUNet/upsample/strided_slice/stack", "op": "Const", "attr": {"value": {"tensor": {"dtype": "DT_INT32", "tensorShape": {"dim": [{"size": "1"}]}}}, "dtype": {"type": "DT_INT32"}}}, {"name": "StatefulPartitionedCall/GeoFeatureNet/ResUNet/upsample/strided_slice/stack_1", "op": "Const", "attr": {"dtype": {"type": "DT_INT32"}, "value": {"tensor": {"dtype": "DT_INT32", "tensorShape": {"dim": [{"size": "1"}]}}}}}, {"name": "StatefulPartitionedCall/GeoFeatureNet/ResUNet/upsample/strided_slice/stack_2", "op": "Const", "attr": {"value": {"tensor": {"dtype": "DT_INT32", "tensorShape": {"dim": [{"size": "1"}]}}}, "dtype": {"type": "DT_INT32"}}}, {"name": "StatefulPartitionedCall/GeoFeatureNet/ResUNet/upsample/Const", "op": "Const", "attr": {"value": {"tensor": {"dtype": "DT_INT32", "tensorShape": {"dim": [{"size": "2"}]}}}, "dtype": {"type": "DT_INT32"}}}, {"name": "StatefulPartitionedCall/GeoFeatureNet/ResUNet/sequential_5/residual_block_9/instance_normalization_30/moments/variance/reduction_indices", "op": "Const", "attr": {"dtype": {"type": "DT_INT32"}, "value": {"tensor": {"dtype": "DT_INT32", "tensorShape": {"dim": [{"size": "2"}]}}}}}, {"name": "StatefulPartitionedCall/GeoFeatureNet/ResUNet/sequential_5/residual_block_9/instance_normalization_30/batchnorm/add/y", "op": "Const", "attr": {"value": {"tensor": {"dtype": "DT_FLOAT", "tensorShape": {}}}, "dtype": {"type": "DT_FLOAT"}}}, {"name": "StatefulPartitionedCall/GeoFeatureNet/ResUNet/sequential_5/residual_block_9/instance_normalization_29/moments/variance/reduction_indices", "op": "Const", "attr": {"dtype": {"type": "DT_INT32"}, "value": {"tensor": {"dtype": "DT_INT32", "tensorShape": {"dim": [{"size": "2"}]}}}}}, {"name": "StatefulPartitionedCall/GeoFeatureNet/ResUNet/sequential_5/residual_block_9/instance_normalization_29/batchnorm/add/y", "op": "Const", "attr": {"value": {"tensor": {"dtype": "DT_FLOAT", "tensorShape": {}}}, "dtype": {"type": "DT_FLOAT"}}}, {"name": "StatefulPartitionedCall/GeoFeatureNet/ResUNet/sequential_5/residual_block_9/instance_normalization_29/moments/mean/reduction_indices", "op": "Const", "attr": {"value": {"tensor": {"dtype": "DT_INT32", "tensorShape": {"dim": [{"size": "2"}]}}}, "dtype": {"type": "DT_INT32"}}}, {"name": "unknown_59", "op": "Const", "attr": {"dtype": {"type": "DT_FLOAT"}, "value": {"tensor": {"dtype": "DT_FLOAT", "tensorShape": {"dim": [{"size": "3"}, {"size": "3"}, {"size": "128"}, {"size": "128"}]}}}}}, {"name": "unknown_60", "op": "Const", "attr": {"value": {"tensor": {"dtype": "DT_FLOAT", "tensorShape": {"dim": [{"size": "128"}]}}}, "dtype": {"type": "DT_FLOAT"}}}, {"name": "StatefulPartitionedCall/GeoFeatureNet/ResUNet/sequential_5/residual_block_9/instance_normalization_30/moments/mean/reduction_indices", "op": "Const", "attr": {"dtype": {"type": "DT_INT32"}, "value": {"tensor": {"dtype": "DT_INT32", "tensorShape": {"dim": [{"size": "2"}]}}}}}, {"name": "unknown_61", "op": "Const", "attr": {"dtype": {"type": "DT_FLOAT"}, "value": {"tensor": {"dtype": "DT_FLOAT", "tensorShape": {"dim": [{"size": "3"}, {"size": "3"}, {"size": "128"}, {"size": "128"}]}}}}}, {"name": "unknown_62", "op": "Const", "attr": {"dtype": {"type": "DT_FLOAT"}, "value": {"tensor": {"dtype": "DT_FLOAT", "tensorShape": {"dim": [{"size": "128"}]}}}}}, {"name": "StatefulPartitionedCall/GeoFeatureNet/ResUNet/sequential_5/residual_block_9/instance_normalization_31/moments/variance/reduction_indices", "op": "Const", "attr": {"dtype": {"type": "DT_INT32"}, "value": {"tensor": {"dtype": "DT_INT32", "tensorShape": {"dim": [{"size": "2"}]}}}}}, {"name": "StatefulPartitionedCall/GeoFeatureNet/ResUNet/sequential_5/residual_block_9/instance_normalization_31/batchnorm/add/y", "op": "Const", "attr": {"dtype": {"type": "DT_FLOAT"}, "value": {"tensor": {"dtype": "DT_FLOAT", "tensorShape": {}}}}}, {"name": "StatefulPartitionedCall/GeoFeatureNet/ResUNet/sequential_5/residual_block_8/instance_normalization_27/moments/variance/reduction_indices", "op": "Const", "attr": {"value": {"tensor": {"dtype": "DT_INT32", "tensorShape": {"dim": [{"size": "2"}]}}}, "dtype": {"type": "DT_INT32"}}}, {"name": "StatefulPartitionedCall/GeoFeatureNet/ResUNet/sequential_5/residual_block_8/instance_normalization_27/batchnorm/add/y", "op": "Const", "attr": {"value": {"tensor": {"dtype": "DT_FLOAT", "tensorShape": {}}}, "dtype": {"type": "DT_FLOAT"}}}, {"name": "StatefulPartitionedCall/GeoFeatureNet/ResUNet/sequential_5/residual_block_8/instance_normalization_26/moments/variance/reduction_indices", "op": "Const", "attr": {"dtype": {"type": "DT_INT32"}, "value": {"tensor": {"dtype": "DT_INT32", "tensorShape": {"dim": [{"size": "2"}]}}}}}, {"name": "StatefulPartitionedCall/GeoFeatureNet/ResUNet/sequential_5/residual_block_8/instance_normalization_26/batchnorm/add/y", "op": "Const", "attr": {"dtype": {"type": "DT_FLOAT"}, "value": {"tensor": {"dtype": "DT_FLOAT", "tensorShape": {}}}}}, {"name": "StatefulPartitionedCall/GeoFeatureNet/ResUNet/sequential_5/residual_block_8/instance_normalization_26/moments/mean/reduction_indices", "op": "Const", "attr": {"dtype": {"type": "DT_INT32"}, "value": {"tensor": {"dtype": "DT_INT32", "tensorShape": {"dim": [{"size": "2"}]}}}}}, {"name": "unknown_53", "op": "Const", "attr": {"dtype": {"type": "DT_FLOAT"}, "value": {"tensor": {"dtype": "DT_FLOAT", "tensorShape": {"dim": [{"size": "3"}, {"size": "3"}, {"size": "128"}, {"size": "128"}]}}}}}, {"name": "unknown_54", "op": "Const", "attr": {"value": {"tensor": {"dtype": "DT_FLOAT", "tensorShape": {"dim": [{"size": "128"}]}}}, "dtype": {"type": "DT_FLOAT"}}}, {"name": "StatefulPartitionedCall/GeoFeatureNet/ResUNet/sequential_5/residual_block_8/instance_normalization_27/moments/mean/reduction_indices", "op": "Const", "attr": {"value": {"tensor": {"dtype": "DT_INT32", "tensorShape": {"dim": [{"size": "2"}]}}}, "dtype": {"type": "DT_INT32"}}}, {"name": "unknown_55", "op": "Const", "attr": {"dtype": {"type": "DT_FLOAT"}, "value": {"tensor": {"dtype": "DT_FLOAT", "tensorShape": {"dim": [{"size": "3"}, {"size": "3"}, {"size": "128"}, {"size": "128"}]}}}}}, {"name": "unknown_56", "op": "Const", "attr": {"value": {"tensor": {"dtype": "DT_FLOAT", "tensorShape": {"dim": [{"size": "128"}]}}}, "dtype": {"type": "DT_FLOAT"}}}, {"name": "unknown_57", "op": "Const", "attr": {"dtype": {"type": "DT_FLOAT"}, "value": {"tensor": {"dtype": "DT_FLOAT", "tensorShape": {"dim": [{"size": "1"}, {"size": "1"}, {"size": "128"}, {"size": "128"}]}}}}}, {"name": "unknown_58", "op": "Const", "attr": {"dtype": {"type": "DT_FLOAT"}, "value": {"tensor": {"dtype": "DT_FLOAT", "tensorShape": {"dim": [{"size": "128"}]}}}}}, {"name": "StatefulPartitionedCall/GeoFeatureNet/ResUNet/sequential_5/residual_block_8/instance_normalization_28/moments/mean/reduction_indices", "op": "Const", "attr": {"value": {"tensor": {"dtype": "DT_INT32", "tensorShape": {"dim": [{"size": "2"}]}}}, "dtype": {"type": "DT_INT32"}}}, {"name": "StatefulPartitionedCall/GeoFeatureNet/ResUNet/sequential_5/residual_block_8/instance_normalization_28/moments/variance/reduction_indices", "op": "Const", "attr": {"value": {"tensor": {"dtype": "DT_INT32", "tensorShape": {"dim": [{"size": "2"}]}}}, "dtype": {"type": "DT_INT32"}}}, {"name": "StatefulPartitionedCall/GeoFeatureNet/ResUNet/sequential_5/residual_block_8/instance_normalization_28/batchnorm/add/y", "op": "Const", "attr": {"dtype": {"type": "DT_FLOAT"}, "value": {"tensor": {"dtype": "DT_FLOAT", "tensorShape": {}}}}}, {"name": "unknown_63", "op": "Const", "attr": {"dtype": {"type": "DT_FLOAT"}, "value": {"tensor": {"dtype": "DT_FLOAT", "tensorShape": {"dim": [{"size": "1"}, {"size": "1"}, {"size": "128"}, {"size": "128"}]}}}}}, {"name": "unknown_64", "op": "Const", "attr": {"dtype": {"type": "DT_FLOAT"}, "value": {"tensor": {"dtype": "DT_FLOAT", "tensorShape": {"dim": [{"size": "128"}]}}}}}, {"name": "StatefulPartitionedCall/GeoFeatureNet/ResUNet/sequential_5/residual_block_9/instance_normalization_31/moments/mean/reduction_indices", "op": "Const", "attr": {"dtype": {"type": "DT_INT32"}, "value": {"tensor": {"dtype": "DT_INT32", "tensorShape": {"dim": [{"size": "2"}]}}}}}, {"name": "StatefulPartitionedCall/GeoFeatureNet/ResUNet/concatenate/concat/axis", "op": "Const", "attr": {"dtype": {"type": "DT_INT32"}, "value": {"tensor": {"dtype": "DT_INT32", "tensorShape": {}}}}}, {"name": "unknown_85", "op": "Const", "attr": {"value": {"tensor": {"dtype": "DT_FLOAT", "tensorShape": {"dim": [{"size": "1"}, {"size": "1"}, {"size": "324"}, {"size": "196"}]}}}, "dtype": {"type": "DT_FLOAT"}}}, {"name": "unknown_86", "op": "Const", "attr": {"value": {"tensor": {"dtype": "DT_FLOAT", "tensorShape": {"dim": [{"size": "196"}]}}}, "dtype": {"type": "DT_FLOAT"}}}, {"name": "StatefulPartitionedCall/GeoFeatureNet/ResUNet/sequential_7/residual_block_12/instance_normalization_40/moments/mean/reduction_indices", "op": "Const", "attr": {"dtype": {"type": "DT_INT32"}, "value": {"tensor": {"dtype": "DT_INT32", "tensorShape": {"dim": [{"size": "2"}]}}}}}, {"name": "StatefulPartitionedCall/GeoFeatureNet/ResUNet/sequential_7/residual_block_12/instance_normalization_40/moments/variance/reduction_indices", "op": "Const", "attr": {"dtype": {"type": "DT_INT32"}, "value": {"tensor": {"dtype": "DT_INT32", "tensorShape": {"dim": [{"size": "2"}]}}}}}, {"name": "StatefulPartitionedCall/GeoFeatureNet/ResUNet/sequential_7/residual_block_12/instance_normalization_40/batchnorm/add/y", "op": "Const", "attr": {"dtype": {"type": "DT_FLOAT"}, "value": {"tensor": {"dtype": "DT_FLOAT", "tensorShape": {}}}}}, {"name": "unknown_91", "op": "Const", "attr": {"dtype": {"type": "DT_FLOAT"}, "value": {"tensor": {"dtype": "DT_FLOAT", "tensorShape": {"dim": [{"size": "1"}, {"size": "1"}, {"size": "196"}, {"size": "196"}]}}}}}, {"name": "unknown_92", "op": "Const", "attr": {"value": {"tensor": {"dtype": "DT_FLOAT", "tensorShape": {"dim": [{"size": "196"}]}}}, "dtype": {"type": "DT_FLOAT"}}}, {"name": "StatefulPartitionedCall/GeoFeatureNet/ResUNet/sequential_7/residual_block_13/instance_normalization_43/moments/mean/reduction_indices", "op": "Const", "attr": {"dtype": {"type": "DT_INT32"}, "value": {"tensor": {"dtype": "DT_INT32", "tensorShape": {"dim": [{"size": "2"}]}}}}}, {"name": "StatefulPartitionedCall/GeoFeatureNet/ResUNet/sequential_7/residual_block_13/instance_normalization_43/moments/variance/reduction_indices", "op": "Const", "attr": {"value": {"tensor": {"dtype": "DT_INT32", "tensorShape": {"dim": [{"size": "2"}]}}}, "dtype": {"type": "DT_INT32"}}}, {"name": "StatefulPartitionedCall/GeoFeatureNet/ResUNet/sequential_7/residual_block_13/instance_normalization_43/batchnorm/add/y", "op": "Const", "attr": {"dtype": {"type": "DT_FLOAT"}, "value": {"tensor": {"dtype": "DT_FLOAT", "tensorShape": {}}}}}, {"name": "StatefulPartitionedCall/GeoFeatureNet/ResUNet/upsample/strided_slice_1/stack", "op": "Const", "attr": {"dtype": {"type": "DT_INT32"}, "value": {"tensor": {"dtype": "DT_INT32", "tensorShape": {"dim": [{"size": "1"}]}}}}}, {"name": "StatefulPartitionedCall/GeoFeatureNet/ResUNet/upsample/strided_slice_1/stack_1", "op": "Const", "attr": {"value": {"tensor": {"dtype": "DT_INT32", "tensorShape": {"dim": [{"size": "1"}]}}}, "dtype": {"type": "DT_INT32"}}}, {"name": "StatefulPartitionedCall/GeoFeatureNet/ResUNet/upsample/strided_slice_1/stack_2", "op": "Const", "attr": {"value": {"tensor": {"dtype": "DT_INT32", "tensorShape": {"dim": [{"size": "1"}]}}}, "dtype": {"type": "DT_INT32"}}}, {"name": "StatefulPartitionedCall/GeoFeatureNet/ResUNet/upsample/Const_1", "op": "Const", "attr": {"value": {"tensor": {"dtype": "DT_INT32", "tensorShape": {"dim": [{"size": "2"}]}}}, "dtype": {"type": "DT_INT32"}}}, {"name": "StatefulPartitionedCall/GeoFeatureNet/ResUNet/sequential_4/residual_block_7/instance_normalization_24/moments/variance/reduction_indices", "op": "Const", "attr": {"value": {"tensor": {"dtype": "DT_INT32", "tensorShape": {"dim": [{"size": "2"}]}}}, "dtype": {"type": "DT_INT32"}}}, {"name": "StatefulPartitionedCall/GeoFeatureNet/ResUNet/sequential_4/residual_block_7/instance_normalization_24/batchnorm/add/y", "op": "Const", "attr": {"value": {"tensor": {"dtype": "DT_FLOAT", "tensorShape": {}}}, "dtype": {"type": "DT_FLOAT"}}}, {"name": "StatefulPartitionedCall/GeoFeatureNet/ResUNet/sequential_4/residual_block_7/instance_normalization_23/moments/variance/reduction_indices", "op": "Const", "attr": {"dtype": {"type": "DT_INT32"}, "value": {"tensor": {"dtype": "DT_INT32", "tensorShape": {"dim": [{"size": "2"}]}}}}}, {"name": "StatefulPartitionedCall/GeoFeatureNet/ResUNet/sequential_4/residual_block_7/instance_normalization_23/batchnorm/add/y", "op": "Const", "attr": {"dtype": {"type": "DT_FLOAT"}, "value": {"tensor": {"dtype": "DT_FLOAT", "tensorShape": {}}}}}, {"name": "StatefulPartitionedCall/GeoFeatureNet/ResUNet/sequential_4/residual_block_7/instance_normalization_23/moments/mean/reduction_indices", "op": "Const", "attr": {"value": {"tensor": {"dtype": "DT_INT32", "tensorShape": {"dim": [{"size": "2"}]}}}, "dtype": {"type": "DT_INT32"}}}, {"name": "unknown_47", "op": "Const", "attr": {"value": {"tensor": {"dtype": "DT_FLOAT", "tensorShape": {"dim": [{"size": "3"}, {"size": "3"}, {"size": "128"}, {"size": "128"}]}}}, "dtype": {"type": "DT_FLOAT"}}}, {"name": "unknown_48", "op": "Const", "attr": {"value": {"tensor": {"dtype": "DT_FLOAT", "tensorShape": {"dim": [{"size": "128"}]}}}, "dtype": {"type": "DT_FLOAT"}}}, {"name": "StatefulPartitionedCall/GeoFeatureNet/ResUNet/sequential_4/residual_block_7/instance_normalization_24/moments/mean/reduction_indices", "op": "Const", "attr": {"value": {"tensor": {"dtype": "DT_INT32", "tensorShape": {"dim": [{"size": "2"}]}}}, "dtype": {"type": "DT_INT32"}}}, {"name": "unknown_49", "op": "Const", "attr": {"value": {"tensor": {"dtype": "DT_FLOAT", "tensorShape": {"dim": [{"size": "3"}, {"size": "3"}, {"size": "128"}, {"size": "128"}]}}}, "dtype": {"type": "DT_FLOAT"}}}, {"name": "unknown_50", "op": "Const", "attr": {"dtype": {"type": "DT_FLOAT"}, "value": {"tensor": {"dtype": "DT_FLOAT", "tensorShape": {"dim": [{"size": "128"}]}}}}}, {"name": "StatefulPartitionedCall/GeoFeatureNet/ResUNet/sequential_4/residual_block_7/instance_normalization_25/moments/variance/reduction_indices", "op": "Const", "attr": {"dtype": {"type": "DT_INT32"}, "value": {"tensor": {"dtype": "DT_INT32", "tensorShape": {"dim": [{"size": "2"}]}}}}}, {"name": "StatefulPartitionedCall/GeoFeatureNet/ResUNet/sequential_4/residual_block_7/instance_normalization_25/batchnorm/add/y", "op": "Const", "attr": {"value": {"tensor": {"dtype": "DT_FLOAT", "tensorShape": {}}}, "dtype": {"type": "DT_FLOAT"}}}, {"name": "StatefulPartitionedCall/GeoFeatureNet/ResUNet/sequential_4/residual_block_6/instance_normalization_21/moments/variance/reduction_indices", "op": "Const", "attr": {"value": {"tensor": {"dtype": "DT_INT32", "tensorShape": {"dim": [{"size": "2"}]}}}, "dtype": {"type": "DT_INT32"}}}, {"name": "StatefulPartitionedCall/GeoFeatureNet/ResUNet/sequential_4/residual_block_6/instance_normalization_21/batchnorm/add/y", "op": "Const", "attr": {"value": {"tensor": {"dtype": "DT_FLOAT", "tensorShape": {}}}, "dtype": {"type": "DT_FLOAT"}}}, {"name": "StatefulPartitionedCall/GeoFeatureNet/ResUNet/sequential_4/residual_block_6/instance_normalization_20/moments/variance/reduction_indices", "op": "Const", "attr": {"value": {"tensor": {"dtype": "DT_INT32", "tensorShape": {"dim": [{"size": "2"}]}}}, "dtype": {"type": "DT_INT32"}}}, {"name": "StatefulPartitionedCall/GeoFeatureNet/ResUNet/sequential_4/residual_block_6/instance_normalization_20/batchnorm/add/y", "op": "Const", "attr": {"dtype": {"type": "DT_FLOAT"}, "value": {"tensor": {"dtype": "DT_FLOAT", "tensorShape": {}}}}}, {"name": "StatefulPartitionedCall/GeoFeatureNet/ResUNet/sequential_4/residual_block_6/instance_normalization_20/moments/mean/reduction_indices", "op": "Const", "attr": {"value": {"tensor": {"dtype": "DT_INT32", "tensorShape": {"dim": [{"size": "2"}]}}}, "dtype": {"type": "DT_INT32"}}}, {"name": "unknown_41", "op": "Const", "attr": {"value": {"tensor": {"dtype": "DT_FLOAT", "tensorShape": {"dim": [{"size": "3"}, {"size": "3"}, {"size": "96"}, {"size": "128"}]}}}, "dtype": {"type": "DT_FLOAT"}}}, {"name": "unknown_42", "op": "Const", "attr": {"dtype": {"type": "DT_FLOAT"}, "value": {"tensor": {"dtype": "DT_FLOAT", "tensorShape": {"dim": [{"size": "128"}]}}}}}, {"name": "StatefulPartitionedCall/GeoFeatureNet/ResUNet/sequential_4/residual_block_6/instance_normalization_21/moments/mean/reduction_indices", "op": "Const", "attr": {"value": {"tensor": {"dtype": "DT_INT32", "tensorShape": {"dim": [{"size": "2"}]}}}, "dtype": {"type": "DT_INT32"}}}, {"name": "unknown_43", "op": "Const", "attr": {"value": {"tensor": {"dtype": "DT_FLOAT", "tensorShape": {"dim": [{"size": "3"}, {"size": "3"}, {"size": "128"}, {"size": "128"}]}}}, "dtype": {"type": "DT_FLOAT"}}}, {"name": "unknown_44", "op": "Const", "attr": {"dtype": {"type": "DT_FLOAT"}, "value": {"tensor": {"dtype": "DT_FLOAT", "tensorShape": {"dim": [{"size": "128"}]}}}}}, {"name": "unknown_45", "op": "Const", "attr": {"value": {"tensor": {"dtype": "DT_FLOAT", "tensorShape": {"dim": [{"size": "1"}, {"size": "1"}, {"size": "96"}, {"size": "128"}]}}}, "dtype": {"type": "DT_FLOAT"}}}, {"name": "unknown_46", "op": "Const", "attr": {"dtype": {"type": "DT_FLOAT"}, "value": {"tensor": {"dtype": "DT_FLOAT", "tensorShape": {"dim": [{"size": "128"}]}}}}}, {"name": "StatefulPartitionedCall/GeoFeatureNet/ResUNet/sequential_4/residual_block_6/instance_normalization_22/moments/mean/reduction_indices", "op": "Const", "attr": {"value": {"tensor": {"dtype": "DT_INT32", "tensorShape": {"dim": [{"size": "2"}]}}}, "dtype": {"type": "DT_INT32"}}}, {"name": "StatefulPartitionedCall/GeoFeatureNet/ResUNet/sequential_4/residual_block_6/instance_normalization_22/moments/variance/reduction_indices", "op": "Const", "attr": {"value": {"tensor": {"dtype": "DT_INT32", "tensorShape": {"dim": [{"size": "2"}]}}}, "dtype": {"type": "DT_INT32"}}}, {"name": "StatefulPartitionedCall/GeoFeatureNet/ResUNet/sequential_4/residual_block_6/instance_normalization_22/batchnorm/add/y", "op": "Const", "attr": {"dtype": {"type": "DT_FLOAT"}, "value": {"tensor": {"dtype": "DT_FLOAT", "tensorShape": {}}}}}, {"name": "unknown_51", "op": "Const", "attr": {"dtype": {"type": "DT_FLOAT"}, "value": {"tensor": {"dtype": "DT_FLOAT", "tensorShape": {"dim": [{"size": "1"}, {"size": "1"}, {"size": "128"}, {"size": "128"}]}}}}}, {"name": "unknown_52", "op": "Const", "attr": {"value": {"tensor": {"dtype": "DT_FLOAT", "tensorShape": {"dim": [{"size": "128"}]}}}, "dtype": {"type": "DT_FLOAT"}}}, {"name": "StatefulPartitionedCall/GeoFeatureNet/ResUNet/sequential_4/residual_block_7/instance_normalization_25/moments/mean/reduction_indices", "op": "Const", "attr": {"dtype": {"type": "DT_INT32"}, "value": {"tensor": {"dtype": "DT_INT32", "tensorShape": {"dim": [{"size": "2"}]}}}}}, {"name": "StatefulPartitionedCall/GeoFeatureNet/ResUNet/concatenate/concat_1/axis", "op": "Const", "attr": {"dtype": {"type": "DT_INT32"}, "value": {"tensor": {"dtype": "DT_INT32", "tensorShape": {}}}}}, {"name": "unknown_97", "op": "Const", "attr": {"dtype": {"type": "DT_FLOAT"}, "value": {"tensor": {"dtype": "DT_FLOAT", "tensorShape": {"dim": [{"size": "1"}, {"size": "1"}, {"size": "324"}, {"size": "128"}]}}}}}, {"name": "unknown_98", "op": "Const", "attr": {"dtype": {"type": "DT_FLOAT"}, "value": {"tensor": {"dtype": "DT_FLOAT", "tensorShape": {"dim": [{"size": "128"}]}}}}}, {"name": "StatefulPartitionedCall/GeoFeatureNet/ResUNet/sequential_8/residual_block_14/instance_normalization_46/moments/mean/reduction_indices", "op": "Const", "attr": {"value": {"tensor": {"dtype": "DT_INT32", "tensorShape": {"dim": [{"size": "2"}]}}}, "dtype": {"type": "DT_INT32"}}}, {"name": "StatefulPartitionedCall/GeoFeatureNet/ResUNet/sequential_8/residual_block_14/instance_normalization_46/moments/variance/reduction_indices", "op": "Const", "attr": {"dtype": {"type": "DT_INT32"}, "value": {"tensor": {"dtype": "DT_INT32", "tensorShape": {"dim": [{"size": "2"}]}}}}}, {"name": "StatefulPartitionedCall/GeoFeatureNet/ResUNet/sequential_8/residual_block_14/instance_normalization_46/batchnorm/add/y", "op": "Const", "attr": {"value": {"tensor": {"dtype": "DT_FLOAT", "tensorShape": {}}}, "dtype": {"type": "DT_FLOAT"}}}, {"name": "unknown_103", "op": "Const", "attr": {"value": {"tensor": {"dtype": "DT_FLOAT", "tensorShape": {"dim": [{"size": "1"}, {"size": "1"}, {"size": "128"}, {"size": "128"}]}}}, "dtype": {"type": "DT_FLOAT"}}}, {"name": "unknown_104", "op": "Const", "attr": {"dtype": {"type": "DT_FLOAT"}, "value": {"tensor": {"dtype": "DT_FLOAT", "tensorShape": {"dim": [{"size": "128"}]}}}}}, {"name": "StatefulPartitionedCall/GeoFeatureNet/ResUNet/sequential_8/residual_block_15/instance_normalization_49/moments/mean/reduction_indices", "op": "Const", "attr": {"value": {"tensor": {"dtype": "DT_INT32", "tensorShape": {"dim": [{"size": "2"}]}}}, "dtype": {"type": "DT_INT32"}}}, {"name": "StatefulPartitionedCall/GeoFeatureNet/ResUNet/sequential_8/residual_block_15/instance_normalization_49/moments/variance/reduction_indices", "op": "Const", "attr": {"value": {"tensor": {"dtype": "DT_INT32", "tensorShape": {"dim": [{"size": "2"}]}}}, "dtype": {"type": "DT_INT32"}}}, {"name": "StatefulPartitionedCall/GeoFeatureNet/ResUNet/sequential_8/residual_block_15/instance_normalization_49/batchnorm/add/y", "op": "Const", "attr": {"dtype": {"type": "DT_FLOAT"}, "value": {"tensor": {"dtype": "DT_FLOAT", "tensorShape": {}}}}}, {"name": "StatefulPartitionedCall/GeoFeatureNet/ResUNet/upsample/strided_slice_2/stack", "op": "Const", "attr": {"value": {"tensor": {"dtype": "DT_INT32", "tensorShape": {"dim": [{"size": "1"}]}}}, "dtype": {"type": "DT_INT32"}}}, {"name": "StatefulPartitionedCall/GeoFeatureNet/ResUNet/upsample/strided_slice_2/stack_1", "op": "Const", "attr": {"dtype": {"type": "DT_INT32"}, "value": {"tensor": {"dtype": "DT_INT32", "tensorShape": {"dim": [{"size": "1"}]}}}}}, {"name": "StatefulPartitionedCall/GeoFeatureNet/ResUNet/upsample/strided_slice_2/stack_2", "op": "Const", "attr": {"dtype": {"type": "DT_INT32"}, "value": {"tensor": {"dtype": "DT_INT32", "tensorShape": {"dim": [{"size": "1"}]}}}}}, {"name": "StatefulPartitionedCall/GeoFeatureNet/ResUNet/upsample/Const_2", "op": "Const", "attr": {"dtype": {"type": "DT_INT32"}, "value": {"tensor": {"dtype": "DT_INT32", "tensorShape": {"dim": [{"size": "2"}]}}}}}, {"name": "StatefulPartitionedCall/GeoFeatureNet/ResUNet/sequential_3/residual_block_5/instance_normalization_18/moments/variance/reduction_indices", "op": "Const", "attr": {"value": {"tensor": {"dtype": "DT_INT32", "tensorShape": {"dim": [{"size": "2"}]}}}, "dtype": {"type": "DT_INT32"}}}, {"name": "StatefulPartitionedCall/GeoFeatureNet/ResUNet/sequential_3/residual_block_5/instance_normalization_18/batchnorm/add/y", "op": "Const", "attr": {"value": {"tensor": {"dtype": "DT_FLOAT", "tensorShape": {}}}, "dtype": {"type": "DT_FLOAT"}}}, {"name": "StatefulPartitionedCall/GeoFeatureNet/ResUNet/sequential_3/residual_block_5/instance_normalization_17/moments/variance/reduction_indices", "op": "Const", "attr": {"dtype": {"type": "DT_INT32"}, "value": {"tensor": {"dtype": "DT_INT32", "tensorShape": {"dim": [{"size": "2"}]}}}}}, {"name": "StatefulPartitionedCall/GeoFeatureNet/ResUNet/sequential_3/residual_block_5/instance_normalization_17/batchnorm/add/y", "op": "Const", "attr": {"dtype": {"type": "DT_FLOAT"}, "value": {"tensor": {"dtype": "DT_FLOAT", "tensorShape": {}}}}}, {"name": "StatefulPartitionedCall/GeoFeatureNet/ResUNet/sequential_3/residual_block_5/instance_normalization_17/moments/mean/reduction_indices", "op": "Const", "attr": {"dtype": {"type": "DT_INT32"}, "value": {"tensor": {"dtype": "DT_INT32", "tensorShape": {"dim": [{"size": "2"}]}}}}}, {"name": "unknown_35", "op": "Const", "attr": {"dtype": {"type": "DT_FLOAT"}, "value": {"tensor": {"dtype": "DT_FLOAT", "tensorShape": {"dim": [{"size": "3"}, {"size": "3"}, {"size": "96"}, {"size": "96"}]}}}}}, {"name": "unknown_36", "op": "Const", "attr": {"value": {"tensor": {"dtype": "DT_FLOAT", "tensorShape": {"dim": [{"size": "96"}]}}}, "dtype": {"type": "DT_FLOAT"}}}, {"name": "StatefulPartitionedCall/GeoFeatureNet/ResUNet/sequential_3/residual_block_5/instance_normalization_18/moments/mean/reduction_indices", "op": "Const", "attr": {"value": {"tensor": {"dtype": "DT_INT32", "tensorShape": {"dim": [{"size": "2"}]}}}, "dtype": {"type": "DT_INT32"}}}, {"name": "unknown_37", "op": "Const", "attr": {"value": {"tensor": {"dtype": "DT_FLOAT", "tensorShape": {"dim": [{"size": "3"}, {"size": "3"}, {"size": "96"}, {"size": "96"}]}}}, "dtype": {"type": "DT_FLOAT"}}}, {"name": "unknown_38", "op": "Const", "attr": {"value": {"tensor": {"dtype": "DT_FLOAT", "tensorShape": {"dim": [{"size": "96"}]}}}, "dtype": {"type": "DT_FLOAT"}}}, {"name": "StatefulPartitionedCall/GeoFeatureNet/ResUNet/sequential_3/residual_block_5/instance_normalization_19/moments/variance/reduction_indices", "op": "Const", "attr": {"value": {"tensor": {"dtype": "DT_INT32", "tensorShape": {"dim": [{"size": "2"}]}}}, "dtype": {"type": "DT_INT32"}}}, {"name": "StatefulPartitionedCall/GeoFeatureNet/ResUNet/sequential_3/residual_block_5/instance_normalization_19/batchnorm/add/y", "op": "Const", "attr": {"dtype": {"type": "DT_FLOAT"}, "value": {"tensor": {"dtype": "DT_FLOAT", "tensorShape": {}}}}}, {"name": "StatefulPartitionedCall/GeoFeatureNet/ResUNet/sequential_3/residual_block_4/instance_normalization_15/moments/variance/reduction_indices", "op": "Const", "attr": {"value": {"tensor": {"dtype": "DT_INT32", "tensorShape": {"dim": [{"size": "2"}]}}}, "dtype": {"type": "DT_INT32"}}}, {"name": "StatefulPartitionedCall/GeoFeatureNet/ResUNet/sequential_3/residual_block_4/instance_normalization_15/batchnorm/add/y", "op": "Const", "attr": {"value": {"tensor": {"dtype": "DT_FLOAT", "tensorShape": {}}}, "dtype": {"type": "DT_FLOAT"}}}, {"name": "StatefulPartitionedCall/GeoFeatureNet/ResUNet/sequential_3/residual_block_4/instance_normalization_14/moments/variance/reduction_indices", "op": "Const", "attr": {"value": {"tensor": {"dtype": "DT_INT32", "tensorShape": {"dim": [{"size": "2"}]}}}, "dtype": {"type": "DT_INT32"}}}, {"name": "StatefulPartitionedCall/GeoFeatureNet/ResUNet/sequential_3/residual_block_4/instance_normalization_14/batchnorm/add/y", "op": "Const", "attr": {"dtype": {"type": "DT_FLOAT"}, "value": {"tensor": {"dtype": "DT_FLOAT", "tensorShape": {}}}}}, {"name": "StatefulPartitionedCall/GeoFeatureNet/ResUNet/sequential_3/residual_block_4/instance_normalization_14/moments/mean/reduction_indices", "op": "Const", "attr": {"dtype": {"type": "DT_INT32"}, "value": {"tensor": {"dtype": "DT_INT32", "tensorShape": {"dim": [{"size": "2"}]}}}}}, {"name": "unknown_29", "op": "Const", "attr": {"dtype": {"type": "DT_FLOAT"}, "value": {"tensor": {"dtype": "DT_FLOAT", "tensorShape": {"dim": [{"size": "3"}, {"size": "3"}, {"size": "64"}, {"size": "96"}]}}}}}, {"name": "unknown_30", "op": "Const", "attr": {"value": {"tensor": {"dtype": "DT_FLOAT", "tensorShape": {"dim": [{"size": "96"}]}}}, "dtype": {"type": "DT_FLOAT"}}}, {"name": "StatefulPartitionedCall/GeoFeatureNet/ResUNet/sequential_3/residual_block_4/instance_normalization_15/moments/mean/reduction_indices", "op": "Const", "attr": {"value": {"tensor": {"dtype": "DT_INT32", "tensorShape": {"dim": [{"size": "2"}]}}}, "dtype": {"type": "DT_INT32"}}}, {"name": "unknown_31", "op": "Const", "attr": {"dtype": {"type": "DT_FLOAT"}, "value": {"tensor": {"dtype": "DT_FLOAT", "tensorShape": {"dim": [{"size": "3"}, {"size": "3"}, {"size": "96"}, {"size": "96"}]}}}}}, {"name": "unknown_32", "op": "Const", "attr": {"dtype": {"type": "DT_FLOAT"}, "value": {"tensor": {"dtype": "DT_FLOAT", "tensorShape": {"dim": [{"size": "96"}]}}}}}, {"name": "unknown_33", "op": "Const", "attr": {"dtype": {"type": "DT_FLOAT"}, "value": {"tensor": {"dtype": "DT_FLOAT", "tensorShape": {"dim": [{"size": "1"}, {"size": "1"}, {"size": "64"}, {"size": "96"}]}}}}}, {"name": "unknown_34", "op": "Const", "attr": {"value": {"tensor": {"dtype": "DT_FLOAT", "tensorShape": {"dim": [{"size": "96"}]}}}, "dtype": {"type": "DT_FLOAT"}}}, {"name": "StatefulPartitionedCall/GeoFeatureNet/ResUNet/sequential_3/residual_block_4/instance_normalization_16/moments/mean/reduction_indices", "op": "Const", "attr": {"value": {"tensor": {"dtype": "DT_INT32", "tensorShape": {"dim": [{"size": "2"}]}}}, "dtype": {"type": "DT_INT32"}}}, {"name": "StatefulPartitionedCall/GeoFeatureNet/ResUNet/sequential_3/residual_block_4/instance_normalization_16/moments/variance/reduction_indices", "op": "Const", "attr": {"value": {"tensor": {"dtype": "DT_INT32", "tensorShape": {"dim": [{"size": "2"}]}}}, "dtype": {"type": "DT_INT32"}}}, {"name": "StatefulPartitionedCall/GeoFeatureNet/ResUNet/sequential_3/residual_block_4/instance_normalization_16/batchnorm/add/y", "op": "Const", "attr": {"value": {"tensor": {"dtype": "DT_FLOAT", "tensorShape": {}}}, "dtype": {"type": "DT_FLOAT"}}}, {"name": "unknown_39", "op": "Const", "attr": {"dtype": {"type": "DT_FLOAT"}, "value": {"tensor": {"dtype": "DT_FLOAT", "tensorShape": {"dim": [{"size": "1"}, {"size": "1"}, {"size": "96"}, {"size": "96"}]}}}}}, {"name": "unknown_40", "op": "Const", "attr": {"value": {"tensor": {"dtype": "DT_FLOAT", "tensorShape": {"dim": [{"size": "96"}]}}}, "dtype": {"type": "DT_FLOAT"}}}, {"name": "StatefulPartitionedCall/GeoFeatureNet/ResUNet/sequential_3/residual_block_5/instance_normalization_19/moments/mean/reduction_indices", "op": "Const", "attr": {"value": {"tensor": {"dtype": "DT_INT32", "tensorShape": {"dim": [{"size": "2"}]}}}, "dtype": {"type": "DT_INT32"}}}, {"name": "StatefulPartitionedCall/GeoFeatureNet/ResUNet/concatenate/concat_2/axis", "op": "Const", "attr": {"dtype": {"type": "DT_INT32"}, "value": {"tensor": {"dtype": "DT_INT32", "tensorShape": {}}}}}, {"name": "unknown_109", "op": "Const", "attr": {"dtype": {"type": "DT_FLOAT"}, "value": {"tensor": {"dtype": "DT_FLOAT", "tensorShape": {"dim": [{"size": "1"}, {"size": "1"}, {"size": "224"}, {"size": "128"}]}}}}}, {"name": "unknown_110", "op": "Const", "attr": {"dtype": {"type": "DT_FLOAT"}, "value": {"tensor": {"dtype": "DT_FLOAT", "tensorShape": {"dim": [{"size": "128"}]}}}}}, {"name": "StatefulPartitionedCall/GeoFeatureNet/ResUNet/sequential_9/residual_block_16/instance_normalization_52/moments/mean/reduction_indices", "op": "Const", "attr": {"value": {"tensor": {"dtype": "DT_INT32", "tensorShape": {"dim": [{"size": "2"}]}}}, "dtype": {"type": "DT_INT32"}}}, {"name": "StatefulPartitionedCall/GeoFeatureNet/ResUNet/sequential_9/residual_block_16/instance_normalization_52/moments/variance/reduction_indices", "op": "Const", "attr": {"dtype": {"type": "DT_INT32"}, "value": {"tensor": {"dtype": "DT_INT32", "tensorShape": {"dim": [{"size": "2"}]}}}}}, {"name": "StatefulPartitionedCall/GeoFeatureNet/ResUNet/sequential_9/residual_block_16/instance_normalization_52/batchnorm/add/y", "op": "Const", "attr": {"dtype": {"type": "DT_FLOAT"}, "value": {"tensor": {"dtype": "DT_FLOAT", "tensorShape": {}}}}}, {"name": "unknown_115", "op": "Const", "attr": {"value": {"tensor": {"dtype": "DT_FLOAT", "tensorShape": {"dim": [{"size": "1"}, {"size": "1"}, {"size": "128"}, {"size": "128"}]}}}, "dtype": {"type": "DT_FLOAT"}}}, {"name": "unknown_116", "op": "Const", "attr": {"dtype": {"type": "DT_FLOAT"}, "value": {"tensor": {"dtype": "DT_FLOAT", "tensorShape": {"dim": [{"size": "128"}]}}}}}, {"name": "StatefulPartitionedCall/GeoFeatureNet/ResUNet/sequential_9/residual_block_17/instance_normalization_55/moments/mean/reduction_indices", "op": "Const", "attr": {"value": {"tensor": {"dtype": "DT_INT32", "tensorShape": {"dim": [{"size": "2"}]}}}, "dtype": {"type": "DT_INT32"}}}, {"name": "StatefulPartitionedCall/GeoFeatureNet/ResUNet/sequential_9/residual_block_17/instance_normalization_55/moments/variance/reduction_indices", "op": "Const", "attr": {"value": {"tensor": {"dtype": "DT_INT32", "tensorShape": {"dim": [{"size": "2"}]}}}, "dtype": {"type": "DT_INT32"}}}, {"name": "StatefulPartitionedCall/GeoFeatureNet/ResUNet/sequential_9/residual_block_17/instance_normalization_55/batchnorm/add/y", "op": "Const", "attr": {"dtype": {"type": "DT_FLOAT"}, "value": {"tensor": {"dtype": "DT_FLOAT", "tensorShape": {}}}}}, {"name": "StatefulPartitionedCall/GeoFeatureNet/ResUNet/upsample/strided_slice_3/stack", "op": "Const", "attr": {"dtype": {"type": "DT_INT32"}, "value": {"tensor": {"dtype": "DT_INT32", "tensorShape": {"dim": [{"size": "1"}]}}}}}, {"name": "StatefulPartitionedCall/GeoFeatureNet/ResUNet/upsample/strided_slice_3/stack_1", "op": "Const", "attr": {"dtype": {"type": "DT_INT32"}, "value": {"tensor": {"dtype": "DT_INT32", "tensorShape": {"dim": [{"size": "1"}]}}}}}, {"name": "StatefulPartitionedCall/GeoFeatureNet/ResUNet/upsample/strided_slice_3/stack_2", "op": "Const", "attr": {"value": {"tensor": {"dtype": "DT_INT32", "tensorShape": {"dim": [{"size": "1"}]}}}, "dtype": {"type": "DT_INT32"}}}, {"name": "StatefulPartitionedCall/GeoFeatureNet/ResUNet/upsample/Const_3", "op": "Const", "attr": {"dtype": {"type": "DT_INT32"}, "value": {"tensor": {"dtype": "DT_INT32", "tensorShape": {"dim": [{"size": "2"}]}}}}}, {"name": "StatefulPartitionedCall/GeoFeatureNet/ResUNet/sequential_2/residual_block_3/instance_normalization_12/moments/variance/reduction_indices", "op": "Const", "attr": {"value": {"tensor": {"dtype": "DT_INT32", "tensorShape": {"dim": [{"size": "2"}]}}}, "dtype": {"type": "DT_INT32"}}}, {"name": "StatefulPartitionedCall/GeoFeatureNet/ResUNet/sequential_2/residual_block_3/instance_normalization_12/batchnorm/add/y", "op": "Const", "attr": {"dtype": {"type": "DT_FLOAT"}, "value": {"tensor": {"dtype": "DT_FLOAT", "tensorShape": {}}}}}, {"name": "StatefulPartitionedCall/GeoFeatureNet/ResUNet/sequential_2/residual_block_3/instance_normalization_11/moments/variance/reduction_indices", "op": "Const", "attr": {"dtype": {"type": "DT_INT32"}, "value": {"tensor": {"dtype": "DT_INT32", "tensorShape": {"dim": [{"size": "2"}]}}}}}, {"name": "StatefulPartitionedCall/GeoFeatureNet/ResUNet/sequential_2/residual_block_3/instance_normalization_11/batchnorm/add/y", "op": "Const", "attr": {"value": {"tensor": {"dtype": "DT_FLOAT", "tensorShape": {}}}, "dtype": {"type": "DT_FLOAT"}}}, {"name": "StatefulPartitionedCall/GeoFeatureNet/ResUNet/sequential_2/residual_block_3/instance_normalization_11/moments/mean/reduction_indices", "op": "Const", "attr": {"value": {"tensor": {"dtype": "DT_INT32", "tensorShape": {"dim": [{"size": "2"}]}}}, "dtype": {"type": "DT_INT32"}}}, {"name": "unknown_23", "op": "Const", "attr": {"dtype": {"type": "DT_FLOAT"}, "value": {"tensor": {"dtype": "DT_FLOAT", "tensorShape": {"dim": [{"size": "3"}, {"size": "3"}, {"size": "64"}, {"size": "64"}]}}}}}, {"name": "unknown_24", "op": "Const", "attr": {"value": {"tensor": {"dtype": "DT_FLOAT", "tensorShape": {"dim": [{"size": "64"}]}}}, "dtype": {"type": "DT_FLOAT"}}}, {"name": "StatefulPartitionedCall/GeoFeatureNet/ResUNet/sequential_2/residual_block_3/instance_normalization_12/moments/mean/reduction_indices", "op": "Const", "attr": {"dtype": {"type": "DT_INT32"}, "value": {"tensor": {"dtype": "DT_INT32", "tensorShape": {"dim": [{"size": "2"}]}}}}}, {"name": "unknown_25", "op": "Const", "attr": {"dtype": {"type": "DT_FLOAT"}, "value": {"tensor": {"dtype": "DT_FLOAT", "tensorShape": {"dim": [{"size": "3"}, {"size": "3"}, {"size": "64"}, {"size": "64"}]}}}}}, {"name": "unknown_26", "op": "Const", "attr": {"value": {"tensor": {"dtype": "DT_FLOAT", "tensorShape": {"dim": [{"size": "64"}]}}}, "dtype": {"type": "DT_FLOAT"}}}, {"name": "StatefulPartitionedCall/GeoFeatureNet/ResUNet/sequential_2/residual_block_3/instance_normalization_13/moments/variance/reduction_indices", "op": "Const", "attr": {"dtype": {"type": "DT_INT32"}, "value": {"tensor": {"dtype": "DT_INT32", "tensorShape": {"dim": [{"size": "2"}]}}}}}, {"name": "StatefulPartitionedCall/GeoFeatureNet/ResUNet/sequential_2/residual_block_3/instance_normalization_13/batchnorm/add/y", "op": "Const", "attr": {"dtype": {"type": "DT_FLOAT"}, "value": {"tensor": {"dtype": "DT_FLOAT", "tensorShape": {}}}}}, {"name": "StatefulPartitionedCall/GeoFeatureNet/ResUNet/sequential_2/residual_block_2/instance_normalization_9/moments/variance/reduction_indices", "op": "Const", "attr": {"value": {"tensor": {"dtype": "DT_INT32", "tensorShape": {"dim": [{"size": "2"}]}}}, "dtype": {"type": "DT_INT32"}}}, {"name": "StatefulPartitionedCall/GeoFeatureNet/ResUNet/sequential_2/residual_block_2/instance_normalization_9/batchnorm/add/y", "op": "Const", "attr": {"value": {"tensor": {"dtype": "DT_FLOAT", "tensorShape": {}}}, "dtype": {"type": "DT_FLOAT"}}}, {"name": "StatefulPartitionedCall/GeoFeatureNet/ResUNet/sequential_2/residual_block_2/instance_normalization_8/moments/variance/reduction_indices", "op": "Const", "attr": {"value": {"tensor": {"dtype": "DT_INT32", "tensorShape": {"dim": [{"size": "2"}]}}}, "dtype": {"type": "DT_INT32"}}}, {"name": "StatefulPartitionedCall/GeoFeatureNet/ResUNet/sequential_2/residual_block_2/instance_normalization_8/batchnorm/add/y", "op": "Const", "attr": {"value": {"tensor": {"dtype": "DT_FLOAT", "tensorShape": {}}}, "dtype": {"type": "DT_FLOAT"}}}, {"name": "StatefulPartitionedCall/GeoFeatureNet/ResUNet/sequential_2/residual_block_2/instance_normalization_8/moments/mean/reduction_indices", "op": "Const", "attr": {"dtype": {"type": "DT_INT32"}, "value": {"tensor": {"dtype": "DT_INT32", "tensorShape": {"dim": [{"size": "2"}]}}}}}, {"name": "unknown_17", "op": "Const", "attr": {"value": {"tensor": {"dtype": "DT_FLOAT", "tensorShape": {"dim": [{"size": "3"}, {"size": "3"}, {"size": "32"}, {"size": "64"}]}}}, "dtype": {"type": "DT_FLOAT"}}}, {"name": "unknown_18", "op": "Const", "attr": {"value": {"tensor": {"dtype": "DT_FLOAT", "tensorShape": {"dim": [{"size": "64"}]}}}, "dtype": {"type": "DT_FLOAT"}}}, {"name": "StatefulPartitionedCall/GeoFeatureNet/ResUNet/sequential_2/residual_block_2/instance_normalization_9/moments/mean/reduction_indices", "op": "Const", "attr": {"value": {"tensor": {"dtype": "DT_INT32", "tensorShape": {"dim": [{"size": "2"}]}}}, "dtype": {"type": "DT_INT32"}}}, {"name": "unknown_19", "op": "Const", "attr": {"dtype": {"type": "DT_FLOAT"}, "value": {"tensor": {"dtype": "DT_FLOAT", "tensorShape": {"dim": [{"size": "3"}, {"size": "3"}, {"size": "64"}, {"size": "64"}]}}}}}, {"name": "unknown_20", "op": "Const", "attr": {"dtype": {"type": "DT_FLOAT"}, "value": {"tensor": {"dtype": "DT_FLOAT", "tensorShape": {"dim": [{"size": "64"}]}}}}}, {"name": "unknown_21", "op": "Const", "attr": {"dtype": {"type": "DT_FLOAT"}, "value": {"tensor": {"dtype": "DT_FLOAT", "tensorShape": {"dim": [{"size": "1"}, {"size": "1"}, {"size": "32"}, {"size": "64"}]}}}}}, {"name": "unknown_22", "op": "Const", "attr": {"dtype": {"type": "DT_FLOAT"}, "value": {"tensor": {"dtype": "DT_FLOAT", "tensorShape": {"dim": [{"size": "64"}]}}}}}, {"name": "StatefulPartitionedCall/GeoFeatureNet/ResUNet/sequential_2/residual_block_2/instance_normalization_10/moments/mean/reduction_indices", "op": "Const", "attr": {"value": {"tensor": {"dtype": "DT_INT32", "tensorShape": {"dim": [{"size": "2"}]}}}, "dtype": {"type": "DT_INT32"}}}, {"name": "StatefulPartitionedCall/GeoFeatureNet/ResUNet/sequential_2/residual_block_2/instance_normalization_10/moments/variance/reduction_indices", "op": "Const", "attr": {"dtype": {"type": "DT_INT32"}, "value": {"tensor": {"dtype": "DT_INT32", "tensorShape": {"dim": [{"size": "2"}]}}}}}, {"name": "StatefulPartitionedCall/GeoFeatureNet/ResUNet/sequential_2/residual_block_2/instance_normalization_10/batchnorm/add/y", "op": "Const", "attr": {"value": {"tensor": {"dtype": "DT_FLOAT", "tensorShape": {}}}, "dtype": {"type": "DT_FLOAT"}}}, {"name": "unknown_27", "op": "Const", "attr": {"value": {"tensor": {"dtype": "DT_FLOAT", "tensorShape": {"dim": [{"size": "1"}, {"size": "1"}, {"size": "64"}, {"size": "64"}]}}}, "dtype": {"type": "DT_FLOAT"}}}, {"name": "unknown_28", "op": "Const", "attr": {"value": {"tensor": {"dtype": "DT_FLOAT", "tensorShape": {"dim": [{"size": "64"}]}}}, "dtype": {"type": "DT_FLOAT"}}}, {"name": "StatefulPartitionedCall/GeoFeatureNet/ResUNet/sequential_2/residual_block_3/instance_normalization_13/moments/mean/reduction_indices", "op": "Const", "attr": {"value": {"tensor": {"dtype": "DT_INT32", "tensorShape": {"dim": [{"size": "2"}]}}}, "dtype": {"type": "DT_INT32"}}}, {"name": "StatefulPartitionedCall/GeoFeatureNet/ResUNet/concatenate/concat_3/axis", "op": "Const", "attr": {"value": {"tensor": {"dtype": "DT_INT32", "tensorShape": {}}}, "dtype": {"type": "DT_INT32"}}}, {"name": "unknown_121", "op": "Const", "attr": {"value": {"tensor": {"dtype": "DT_FLOAT", "tensorShape": {"dim": [{"size": "1"}, {"size": "1"}, {"size": "192"}, {"size": "96"}]}}}, "dtype": {"type": "DT_FLOAT"}}}, {"name": "unknown_122", "op": "Const", "attr": {"value": {"tensor": {"dtype": "DT_FLOAT", "tensorShape": {"dim": [{"size": "96"}]}}}, "dtype": {"type": "DT_FLOAT"}}}, {"name": "StatefulPartitionedCall/GeoFeatureNet/ResUNet/sequential_10/residual_block_18/instance_normalization_58/moments/mean/reduction_indices", "op": "Const", "attr": {"value": {"tensor": {"dtype": "DT_INT32", "tensorShape": {"dim": [{"size": "2"}]}}}, "dtype": {"type": "DT_INT32"}}}, {"name": "StatefulPartitionedCall/GeoFeatureNet/ResUNet/sequential_10/residual_block_18/instance_normalization_58/moments/variance/reduction_indices", "op": "Const", "attr": {"value": {"tensor": {"dtype": "DT_INT32", "tensorShape": {"dim": [{"size": "2"}]}}}, "dtype": {"type": "DT_INT32"}}}, {"name": "StatefulPartitionedCall/GeoFeatureNet/ResUNet/sequential_10/residual_block_18/instance_normalization_58/batchnorm/add/y", "op": "Const", "attr": {"value": {"tensor": {"dtype": "DT_FLOAT", "tensorShape": {}}}, "dtype": {"type": "DT_FLOAT"}}}, {"name": "unknown_127", "op": "Const", "attr": {"dtype": {"type": "DT_FLOAT"}, "value": {"tensor": {"dtype": "DT_FLOAT", "tensorShape": {"dim": [{"size": "1"}, {"size": "1"}, {"size": "96"}, {"size": "96"}]}}}}}, {"name": "unknown_128", "op": "Const", "attr": {"dtype": {"type": "DT_FLOAT"}, "value": {"tensor": {"dtype": "DT_FLOAT", "tensorShape": {"dim": [{"size": "96"}]}}}}}, {"name": "StatefulPartitionedCall/GeoFeatureNet/ResUNet/sequential_10/residual_block_19/instance_normalization_61/moments/mean/reduction_indices", "op": "Const", "attr": {"dtype": {"type": "DT_INT32"}, "value": {"tensor": {"dtype": "DT_INT32", "tensorShape": {"dim": [{"size": "2"}]}}}}}, {"name": "StatefulPartitionedCall/GeoFeatureNet/ResUNet/sequential_10/residual_block_19/instance_normalization_61/moments/variance/reduction_indices", "op": "Const", "attr": {"value": {"tensor": {"dtype": "DT_INT32", "tensorShape": {"dim": [{"size": "2"}]}}}, "dtype": {"type": "DT_INT32"}}}, {"name": "StatefulPartitionedCall/GeoFeatureNet/ResUNet/sequential_10/residual_block_19/instance_normalization_61/batchnorm/add/y", "op": "Const", "attr": {"dtype": {"type": "DT_FLOAT"}, "value": {"tensor": {"dtype": "DT_FLOAT", "tensorShape": {}}}}}, {"name": "StatefulPartitionedCall/GeoFeatureNet/ResUNet/upsample/strided_slice_4/stack", "op": "Const", "attr": {"value": {"tensor": {"dtype": "DT_INT32", "tensorShape": {"dim": [{"size": "1"}]}}}, "dtype": {"type": "DT_INT32"}}}, {"name": "StatefulPartitionedCall/GeoFeatureNet/ResUNet/upsample/strided_slice_4/stack_1", "op": "Const", "attr": {"dtype": {"type": "DT_INT32"}, "value": {"tensor": {"dtype": "DT_INT32", "tensorShape": {"dim": [{"size": "1"}]}}}}}, {"name": "StatefulPartitionedCall/GeoFeatureNet/ResUNet/upsample/strided_slice_4/stack_2", "op": "Const", "attr": {"dtype": {"type": "DT_INT32"}, "value": {"tensor": {"dtype": "DT_INT32", "tensorShape": {"dim": [{"size": "1"}]}}}}}, {"name": "StatefulPartitionedCall/GeoFeatureNet/ResUNet/upsample/Const_4", "op": "Const", "attr": {"dtype": {"type": "DT_INT32"}, "value": {"tensor": {"dtype": "DT_INT32", "tensorShape": {"dim": [{"size": "2"}]}}}}}, {"name": "StatefulPartitionedCall/GeoFeatureNet/ResUNet/sequential_1/residual_block_1/instance_normalization_6/moments/variance/reduction_indices", "op": "Const", "attr": {"dtype": {"type": "DT_INT32"}, "value": {"tensor": {"dtype": "DT_INT32", "tensorShape": {"dim": [{"size": "2"}]}}}}}, {"name": "StatefulPartitionedCall/GeoFeatureNet/ResUNet/sequential_1/residual_block_1/instance_normalization_6/batchnorm/add/y", "op": "Const", "attr": {"value": {"tensor": {"dtype": "DT_FLOAT", "tensorShape": {}}}, "dtype": {"type": "DT_FLOAT"}}}, {"name": "StatefulPartitionedCall/GeoFeatureNet/ResUNet/sequential_1/residual_block_1/instance_normalization_5/moments/variance/reduction_indices", "op": "Const", "attr": {"value": {"tensor": {"dtype": "DT_INT32", "tensorShape": {"dim": [{"size": "2"}]}}}, "dtype": {"type": "DT_INT32"}}}, {"name": "StatefulPartitionedCall/GeoFeatureNet/ResUNet/sequential_1/residual_block_1/instance_normalization_5/batchnorm/add/y", "op": "Const", "attr": {"dtype": {"type": "DT_FLOAT"}, "value": {"tensor": {"dtype": "DT_FLOAT", "tensorShape": {}}}}}, {"name": "StatefulPartitionedCall/GeoFeatureNet/ResUNet/sequential_1/residual_block_1/instance_normalization_5/moments/mean/reduction_indices", "op": "Const", "attr": {"dtype": {"type": "DT_INT32"}, "value": {"tensor": {"dtype": "DT_INT32", "tensorShape": {"dim": [{"size": "2"}]}}}}}, {"name": "unknown_11", "op": "Const", "attr": {"dtype": {"type": "DT_FLOAT"}, "value": {"tensor": {"dtype": "DT_FLOAT", "tensorShape": {"dim": [{"size": "3"}, {"size": "3"}, {"size": "32"}, {"size": "32"}]}}}}}, {"name": "unknown_12", "op": "Const", "attr": {"value": {"tensor": {"dtype": "DT_FLOAT", "tensorShape": {"dim": [{"size": "32"}]}}}, "dtype": {"type": "DT_FLOAT"}}}, {"name": "StatefulPartitionedCall/GeoFeatureNet/ResUNet/sequential_1/residual_block_1/instance_normalization_6/moments/mean/reduction_indices", "op": "Const", "attr": {"value": {"tensor": {"dtype": "DT_INT32", "tensorShape": {"dim": [{"size": "2"}]}}}, "dtype": {"type": "DT_INT32"}}}, {"name": "unknown_13", "op": "Const", "attr": {"value": {"tensor": {"dtype": "DT_FLOAT", "tensorShape": {"dim": [{"size": "3"}, {"size": "3"}, {"size": "32"}, {"size": "32"}]}}}, "dtype": {"type": "DT_FLOAT"}}}, {"name": "unknown_14", "op": "Const", "attr": {"dtype": {"type": "DT_FLOAT"}, "value": {"tensor": {"dtype": "DT_FLOAT", "tensorShape": {"dim": [{"size": "32"}]}}}}}, {"name": "StatefulPartitionedCall/GeoFeatureNet/ResUNet/sequential_1/residual_block_1/instance_normalization_7/moments/variance/reduction_indices", "op": "Const", "attr": {"dtype": {"type": "DT_INT32"}, "value": {"tensor": {"dtype": "DT_INT32", "tensorShape": {"dim": [{"size": "2"}]}}}}}, {"name": "StatefulPartitionedCall/GeoFeatureNet/ResUNet/sequential_1/residual_block_1/instance_normalization_7/batchnorm/add/y", "op": "Const", "attr": {"dtype": {"type": "DT_FLOAT"}, "value": {"tensor": {"dtype": "DT_FLOAT", "tensorShape": {}}}}}, {"name": "StatefulPartitionedCall/GeoFeatureNet/ResUNet/sequential_1/residual_block/instance_normalization_3/moments/variance/reduction_indices", "op": "Const", "attr": {"value": {"tensor": {"dtype": "DT_INT32", "tensorShape": {"dim": [{"size": "2"}]}}}, "dtype": {"type": "DT_INT32"}}}, {"name": "StatefulPartitionedCall/GeoFeatureNet/ResUNet/sequential_1/residual_block/instance_normalization_3/batchnorm/add/y", "op": "Const", "attr": {"value": {"tensor": {"dtype": "DT_FLOAT", "tensorShape": {}}}, "dtype": {"type": "DT_FLOAT"}}}, {"name": "StatefulPartitionedCall/GeoFeatureNet/ResUNet/sequential_1/residual_block/instance_normalization_2/moments/variance/reduction_indices", "op": "Const", "attr": {"value": {"tensor": {"dtype": "DT_INT32", "tensorShape": {"dim": [{"size": "2"}]}}}, "dtype": {"type": "DT_INT32"}}}, {"name": "StatefulPartitionedCall/GeoFeatureNet/ResUNet/sequential_1/residual_block/instance_normalization_2/batchnorm/add/y", "op": "Const", "attr": {"dtype": {"type": "DT_FLOAT"}, "value": {"tensor": {"dtype": "DT_FLOAT", "tensorShape": {}}}}}, {"name": "StatefulPartitionedCall/GeoFeatureNet/ResUNet/sequential_1/residual_block/instance_normalization_2/moments/mean/reduction_indices", "op": "Const", "attr": {"dtype": {"type": "DT_INT32"}, "value": {"tensor": {"dtype": "DT_INT32", "tensorShape": {"dim": [{"size": "2"}]}}}}}, {"name": "unknown_5", "op": "Const", "attr": {"value": {"tensor": {"dtype": "DT_FLOAT", "tensorShape": {"dim": [{"size": "3"}, {"size": "3"}, {"size": "16"}, {"size": "32"}]}}}, "dtype": {"type": "DT_FLOAT"}}}, {"name": "unknown_6", "op": "Const", "attr": {"dtype": {"type": "DT_FLOAT"}, "value": {"tensor": {"dtype": "DT_FLOAT", "tensorShape": {"dim": [{"size": "32"}]}}}}}, {"name": "StatefulPartitionedCall/GeoFeatureNet/ResUNet/sequential_1/residual_block/instance_normalization_3/moments/mean/reduction_indices", "op": "Const", "attr": {"dtype": {"type": "DT_INT32"}, "value": {"tensor": {"dtype": "DT_INT32", "tensorShape": {"dim": [{"size": "2"}]}}}}}, {"name": "unknown_7", "op": "Const", "attr": {"value": {"tensor": {"dtype": "DT_FLOAT", "tensorShape": {"dim": [{"size": "3"}, {"size": "3"}, {"size": "32"}, {"size": "32"}]}}}, "dtype": {"type": "DT_FLOAT"}}}, {"name": "unknown_8", "op": "Const", "attr": {"value": {"tensor": {"dtype": "DT_FLOAT", "tensorShape": {"dim": [{"size": "32"}]}}}, "dtype": {"type": "DT_FLOAT"}}}, {"name": "unknown_9", "op": "Const", "attr": {"dtype": {"type": "DT_FLOAT"}, "value": {"tensor": {"dtype": "DT_FLOAT", "tensorShape": {"dim": [{"size": "1"}, {"size": "1"}, {"size": "16"}, {"size": "32"}]}}}}}, {"name": "unknown_10", "op": "Const", "attr": {"value": {"tensor": {"dtype": "DT_FLOAT", "tensorShape": {"dim": [{"size": "32"}]}}}, "dtype": {"type": "DT_FLOAT"}}}, {"name": "StatefulPartitionedCall/GeoFeatureNet/ResUNet/sequential_1/residual_block/instance_normalization_4/moments/mean/reduction_indices", "op": "Const", "attr": {"dtype": {"type": "DT_INT32"}, "value": {"tensor": {"dtype": "DT_INT32", "tensorShape": {"dim": [{"size": "2"}]}}}}}, {"name": "StatefulPartitionedCall/GeoFeatureNet/ResUNet/sequential_1/residual_block/instance_normalization_4/moments/variance/reduction_indices", "op": "Const", "attr": {"value": {"tensor": {"dtype": "DT_INT32", "tensorShape": {"dim": [{"size": "2"}]}}}, "dtype": {"type": "DT_INT32"}}}, {"name": "StatefulPartitionedCall/GeoFeatureNet/ResUNet/sequential_1/residual_block/instance_normalization_4/batchnorm/add/y", "op": "Const", "attr": {"value": {"tensor": {"dtype": "DT_FLOAT", "tensorShape": {}}}, "dtype": {"type": "DT_FLOAT"}}}, {"name": "unknown_15", "op": "Const", "attr": {"dtype": {"type": "DT_FLOAT"}, "value": {"tensor": {"dtype": "DT_FLOAT", "tensorShape": {"dim": [{"size": "1"}, {"size": "1"}, {"size": "32"}, {"size": "32"}]}}}}}, {"name": "unknown_16", "op": "Const", "attr": {"value": {"tensor": {"dtype": "DT_FLOAT", "tensorShape": {"dim": [{"size": "32"}]}}}, "dtype": {"type": "DT_FLOAT"}}}, {"name": "StatefulPartitionedCall/GeoFeatureNet/ResUNet/sequential_1/residual_block_1/instance_normalization_7/moments/mean/reduction_indices", "op": "Const", "attr": {"dtype": {"type": "DT_INT32"}, "value": {"tensor": {"dtype": "DT_INT32", "tensorShape": {"dim": [{"size": "2"}]}}}}}, {"name": "StatefulPartitionedCall/GeoFeatureNet/ResUNet/concatenate/concat_4/axis", "op": "Const", "attr": {"value": {"tensor": {"dtype": "DT_INT32", "tensorShape": {}}}, "dtype": {"type": "DT_INT32"}}}, {"name": "unknown_133", "op": "Const", "attr": {"value": {"tensor": {"dtype": "DT_FLOAT", "tensorShape": {"dim": [{"size": "1"}, {"size": "1"}, {"size": "128"}, {"size": "64"}]}}}, "dtype": {"type": "DT_FLOAT"}}}, {"name": "unknown_134", "op": "Const", "attr": {"dtype": {"type": "DT_FLOAT"}, "value": {"tensor": {"dtype": "DT_FLOAT", "tensorShape": {"dim": [{"size": "64"}]}}}}}, {"name": "StatefulPartitionedCall/GeoFeatureNet/ResUNet/sequential_11/residual_block_20/instance_normalization_64/moments/mean/reduction_indices", "op": "Const", "attr": {"dtype": {"type": "DT_INT32"}, "value": {"tensor": {"dtype": "DT_INT32", "tensorShape": {"dim": [{"size": "2"}]}}}}}, {"name": "StatefulPartitionedCall/GeoFeatureNet/ResUNet/sequential_11/residual_block_20/instance_normalization_64/moments/variance/reduction_indices", "op": "Const", "attr": {"dtype": {"type": "DT_INT32"}, "value": {"tensor": {"dtype": "DT_INT32", "tensorShape": {"dim": [{"size": "2"}]}}}}}, {"name": "StatefulPartitionedCall/GeoFeatureNet/ResUNet/sequential_11/residual_block_20/instance_normalization_64/batchnorm/add/y", "op": "Const", "attr": {"dtype": {"type": "DT_FLOAT"}, "value": {"tensor": {"dtype": "DT_FLOAT", "tensorShape": {}}}}}, {"name": "unknown_139", "op": "Const", "attr": {"dtype": {"type": "DT_FLOAT"}, "value": {"tensor": {"dtype": "DT_FLOAT", "tensorShape": {"dim": [{"size": "1"}, {"size": "1"}, {"size": "64"}, {"size": "64"}]}}}}}, {"name": "unknown_140", "op": "Const", "attr": {"dtype": {"type": "DT_FLOAT"}, "value": {"tensor": {"dtype": "DT_FLOAT", "tensorShape": {"dim": [{"size": "64"}]}}}}}, {"name": "StatefulPartitionedCall/GeoFeatureNet/ResUNet/sequential_11/residual_block_21/instance_normalization_67/moments/mean/reduction_indices", "op": "Const", "attr": {"dtype": {"type": "DT_INT32"}, "value": {"tensor": {"dtype": "DT_INT32", "tensorShape": {"dim": [{"size": "2"}]}}}}}, {"name": "StatefulPartitionedCall/GeoFeatureNet/ResUNet/sequential_11/residual_block_21/instance_normalization_67/moments/variance/reduction_indices", "op": "Const", "attr": {"value": {"tensor": {"dtype": "DT_INT32", "tensorShape": {"dim": [{"size": "2"}]}}}, "dtype": {"type": "DT_INT32"}}}, {"name": "StatefulPartitionedCall/GeoFeatureNet/ResUNet/sequential_11/residual_block_21/instance_normalization_67/batchnorm/add/y", "op": "Const", "attr": {"dtype": {"type": "DT_FLOAT"}, "value": {"tensor": {"dtype": "DT_FLOAT", "tensorShape": {}}}}}, {"name": "StatefulPartitionedCall/GeoFeatureNet/ResUNet/upsample/strided_slice_5/stack", "op": "Const", "attr": {"value": {"tensor": {"dtype": "DT_INT32", "tensorShape": {"dim": [{"size": "1"}]}}}, "dtype": {"type": "DT_INT32"}}}, {"name": "StatefulPartitionedCall/GeoFeatureNet/ResUNet/upsample/strided_slice_5/stack_1", "op": "Const", "attr": {"value": {"tensor": {"dtype": "DT_INT32", "tensorShape": {"dim": [{"size": "1"}]}}}, "dtype": {"type": "DT_INT32"}}}, {"name": "StatefulPartitionedCall/GeoFeatureNet/ResUNet/upsample/strided_slice_5/stack_2", "op": "Const", "attr": {"value": {"tensor": {"dtype": "DT_INT32", "tensorShape": {"dim": [{"size": "1"}]}}}, "dtype": {"type": "DT_INT32"}}}, {"name": "StatefulPartitionedCall/GeoFeatureNet/ResUNet/upsample/Const_5", "op": "Const", "attr": {"dtype": {"type": "DT_INT32"}, "value": {"tensor": {"dtype": "DT_INT32", "tensorShape": {"dim": [{"size": "2"}]}}}}}, {"name": "StatefulPartitionedCall/GeoFeatureNet/ResUNet/sequential/instance_normalization/moments/variance/reduction_indices", "op": "Const", "attr": {"dtype": {"type": "DT_INT32"}, "value": {"tensor": {"dtype": "DT_INT32", "tensorShape": {"dim": [{"size": "2"}]}}}}}, {"name": "StatefulPartitionedCall/GeoFeatureNet/ResUNet/sequential/instance_normalization/batchnorm/add/y", "op": "Const", "attr": {"value": {"tensor": {"dtype": "DT_FLOAT", "tensorShape": {}}}, "dtype": {"type": "DT_FLOAT"}}}, {"name": "unknown", "op": "Const", "attr": {"dtype": {"type": "DT_FLOAT"}, "value": {"tensor": {"dtype": "DT_FLOAT", "tensorShape": {"dim": [{"size": "3"}, {"size": "3"}, {"size": "3"}, {"size": "16"}]}}}}}, {"name": "unknown_0", "op": "Const", "attr": {"dtype": {"type": "DT_FLOAT"}, "value": {"tensor": {"dtype": "DT_FLOAT", "tensorShape": {"dim": [{"size": "16"}]}}}}}, {"name": "StatefulPartitionedCall/GeoFeatureNet/ResUNet/sequential/instance_normalization/moments/mean/reduction_indices", "op": "Const", "attr": {"dtype": {"type": "DT_INT32"}, "value": {"tensor": {"dtype": "DT_INT32", "tensorShape": {"dim": [{"size": "2"}]}}}}}, {"name": "unknown_1", "op": "Const", "attr": {"value": {"tensor": {"dtype": "DT_FLOAT", "tensorShape": {"dim": [{"size": "3"}, {"size": "3"}, {"size": "16"}, {"size": "16"}]}}}, "dtype": {"type": "DT_FLOAT"}}}, {"name": "unknown_2", "op": "Const", "attr": {"value": {"tensor": {"dtype": "DT_FLOAT", "tensorShape": {"dim": [{"size": "16"}]}}}, "dtype": {"type": "DT_FLOAT"}}}, {"name": "StatefulPartitionedCall/GeoFeatureNet/ResUNet/instance_normalization_1/moments/variance/reduction_indices", "op": "Const", "attr": {"dtype": {"type": "DT_INT32"}, "value": {"tensor": {"dtype": "DT_INT32", "tensorShape": {"dim": [{"size": "2"}]}}}}}, {"name": "StatefulPartitionedCall/GeoFeatureNet/ResUNet/instance_normalization_1/batchnorm/add/y", "op": "Const", "attr": {"value": {"tensor": {"dtype": "DT_FLOAT", "tensorShape": {}}}, "dtype": {"type": "DT_FLOAT"}}}, {"name": "unknown_3", "op": "Const", "attr": {"dtype": {"type": "DT_FLOAT"}, "value": {"tensor": {"dtype": "DT_FLOAT", "tensorShape": {"dim": [{"size": "1"}, {"size": "1"}, {"size": "3"}, {"size": "16"}]}}}}}, {"name": "unknown_4", "op": "Const", "attr": {"dtype": {"type": "DT_FLOAT"}, "value": {"tensor": {"dtype": "DT_FLOAT", "tensorShape": {"dim": [{"size": "16"}]}}}}}, {"name": "StatefulPartitionedCall/GeoFeatureNet/ResUNet/instance_normalization_1/moments/mean/reduction_indices", "op": "Const", "attr": {"value": {"tensor": {"dtype": "DT_INT32", "tensorShape": {"dim": [{"size": "2"}]}}}, "dtype": {"type": "DT_INT32"}}}, {"name": "StatefulPartitionedCall/GeoFeatureNet/ResUNet/concatenate/concat_5/axis", "op": "Const", "attr": {"value": {"tensor": {"dtype": "DT_INT32", "tensorShape": {}}}, "dtype": {"type": "DT_INT32"}}}, {"name": "unknown_145", "op": "Const", "attr": {"dtype": {"type": "DT_FLOAT"}, "value": {"tensor": {"dtype": "DT_FLOAT", "tensorShape": {"dim": [{"size": "1"}, {"size": "1"}, {"size": "80"}, {"size": "32"}]}}}}}, {"name": "unknown_146", "op": "Const", "attr": {"dtype": {"type": "DT_FLOAT"}, "value": {"tensor": {"dtype": "DT_FLOAT", "tensorShape": {"dim": [{"size": "32"}]}}}}}, {"name": "StatefulPartitionedCall/GeoFeatureNet/ResUNet/sequential_12/residual_block_22/instance_normalization_70/moments/mean/reduction_indices", "op": "Const", "attr": {"value": {"tensor": {"dtype": "DT_INT32", "tensorShape": {"dim": [{"size": "2"}]}}}, "dtype": {"type": "DT_INT32"}}}, {"name": "StatefulPartitionedCall/GeoFeatureNet/ResUNet/sequential_12/residual_block_22/instance_normalization_70/moments/variance/reduction_indices", "op": "Const", "attr": {"value": {"tensor": {"dtype": "DT_INT32", "tensorShape": {"dim": [{"size": "2"}]}}}, "dtype": {"type": "DT_INT32"}}}, {"name": "StatefulPartitionedCall/GeoFeatureNet/ResUNet/sequential_12/residual_block_22/instance_normalization_70/batchnorm/add/y", "op": "Const", "attr": {"dtype": {"type": "DT_FLOAT"}, "value": {"tensor": {"dtype": "DT_FLOAT", "tensorShape": {}}}}}, {"name": "unknown_151", "op": "Const", "attr": {"value": {"tensor": {"dtype": "DT_FLOAT", "tensorShape": {"dim": [{"size": "1"}, {"size": "1"}, {"size": "32"}, {"size": "32"}]}}}, "dtype": {"type": "DT_FLOAT"}}}, {"name": "unknown_152", "op": "Const", "attr": {"value": {"tensor": {"dtype": "DT_FLOAT", "tensorShape": {"dim": [{"size": "32"}]}}}, "dtype": {"type": "DT_FLOAT"}}}, {"name": "StatefulPartitionedCall/GeoFeatureNet/ResUNet/sequential_12/residual_block_23/instance_normalization_73/moments/mean/reduction_indices", "op": "Const", "attr": {"value": {"tensor": {"dtype": "DT_INT32", "tensorShape": {"dim": [{"size": "2"}]}}}, "dtype": {"type": "DT_INT32"}}}, {"name": "StatefulPartitionedCall/GeoFeatureNet/ResUNet/sequential_12/residual_block_23/instance_normalization_73/moments/variance/reduction_indices", "op": "Const", "attr": {"value": {"tensor": {"dtype": "DT_INT32", "tensorShape": {"dim": [{"size": "2"}]}}}, "dtype": {"type": "DT_INT32"}}}, {"name": "StatefulPartitionedCall/GeoFeatureNet/ResUNet/sequential_12/residual_block_23/instance_normalization_73/batchnorm/add/y", "op": "Const", "attr": {"dtype": {"type": "DT_FLOAT"}, "value": {"tensor": {"dtype": "DT_FLOAT", "tensorShape": {}}}}}, {"name": "unknown_163", "op": "Const", "attr": {"dtype": {"type": "DT_FLOAT"}, "value": {"tensor": {"dtype": "DT_FLOAT", "tensorShape": {"dim": [{"size": "1"}, {"size": "1"}, {"size": "32"}, {"size": "16"}]}}}}}, {"name": "unknown_164", "op": "Const", "attr": {"value": {"tensor": {"dtype": "DT_FLOAT", "tensorShape": {"dim": [{"size": "16"}]}}}, "dtype": {"type": "DT_FLOAT"}}}, {"name": "StatefulPartitionedCall/GeoFeatureNet/l2_normalize/Sum/reduction_indices", "op": "Const", "attr": {"dtype": {"type": "DT_INT32"}, "value": {"tensor": {"dtype": "DT_INT32", "tensorShape": {}}}}}, {"name": "StatefulPartitionedCall/GeoFeatureNet/l2_normalize/Maximum/y", "op": "Const", "attr": {"dtype": {"type": "DT_FLOAT"}, "value": {"tensor": {"dtype": "DT_FLOAT", "tensorShape": {}}}}}, {"name": "input_1", "op": "Placeholder", "attr": {"shape": {"shape": {"dim": [{"size": "-1"}, {"size": "384"}, {"size": "256"}, {"size": "3"}]}}, "dtype": {"type": "DT_FLOAT"}}}, {"name": "input_2", "op": "Placeholder", "attr": {"shape": {"shape": {"dim": [{"size": "-1"}, {"size": "384"}, {"size": "256"}, {"size": "1"}]}}, "dtype": {"type": "DT_BOOL"}}}, {"name": "StatefulPartitionedCall/GeoFeatureNet/ResUNet/conv2d/BiasAdd", "op": "_FusedConv2D", "input": ["input_1", "unknown", "unknown_0"], "device": "/device:CPU:0", "attr": {"epsilon": {"f": 0.0}, "use_cudnn_on_gpu": {"b": true}, "num_args": {"i": "1"}, "padding": {"s": "U0FNRQ=="}, "dilations": {"list": {"i": ["1", "1", "1", "1"]}}, "strides": {"list": {"i": ["1", "1", "1", "1"]}}, "data_format": {"s": "TkhXQw=="}, "explicit_paddings": {"list": {}}, "fused_ops": {"list": {"s": ["Qmlhc0FkZA=="]}}, "T": {"type": "DT_FLOAT"}}}, {"name": "StatefulPartitionedCall/GeoFeatureNet/ResUNet/conv2d_2/BiasAdd", "op": "_FusedConv2D", "input": ["input_1", "unknown_3", "unknown_4"], "device": "/device:CPU:0", "attr": {"padding": {"s": "U0FNRQ=="}, "data_format": {"s": "TkhXQw=="}, "num_args": {"i": "1"}, "fused_ops": {"list": {"s": ["Qmlhc0FkZA=="]}}, "strides": {"list": {"i": ["1", "1", "1", "1"]}}, "epsilon": {"f": 0.0}, "explicit_paddings": {"list": {}}, "use_cudnn_on_gpu": {"b": true}, "T": {"type": "DT_FLOAT"}, "dilations": {"list": {"i": ["1", "1", "1", "1"]}}}}, {"name": "StatefulPartitionedCall/GeoFeatureNet/ResUNet/sequential/instance_normalization/moments/mean", "op": "Mean", "input": ["StatefulPartitionedCall/GeoFeatureNet/ResUNet/conv2d/BiasAdd", "StatefulPartitionedCall/GeoFeatureNet/ResUNet/sequential/instance_normalization/moments/mean/reduction_indices"], "attr": {"Tidx": {"type": "DT_INT32"}, "keep_dims": {"b": true}, "T": {"type": "DT_FLOAT"}}}, {"name": "StatefulPartitionedCall/GeoFeatureNet/ResUNet/instance_normalization_1/moments/mean", "op": "Mean", "input": ["StatefulPartitionedCall/GeoFeatureNet/ResUNet/conv2d_2/BiasAdd", "StatefulPartitionedCall/GeoFeatureNet/ResUNet/instance_normalization_1/moments/mean/reduction_indices"], "attr": {"Tidx": {"type": "DT_INT32"}, "T": {"type": "DT_FLOAT"}, "keep_dims": {"b": true}}}, {"name": "StatefulPartitionedCall/GeoFeatureNet/ResUNet/sequential/instance_normalization/moments/SquaredDifference", "op": "SquaredDifference", "input": ["StatefulPartitionedCall/GeoFeatureNet/ResUNet/conv2d/BiasAdd", "StatefulPartitionedCall/GeoFeatureNet/ResUNet/sequential/instance_normalization/moments/mean"], "attr": {"T": {"type": "DT_FLOAT"}}}, {"name": "StatefulPartitionedCall/GeoFeatureNet/ResUNet/sequential/instance_normalization/batchnorm/ArithmeticOptimizer/HoistCommonFactor_Add_add_1", "op": "Sub", "input": ["StatefulPartitionedCall/GeoFeatureNet/ResUNet/conv2d/BiasAdd", "StatefulPartitionedCall/GeoFeatureNet/ResUNet/sequential/instance_normalization/moments/mean"], "attr": {"T": {"type": "DT_FLOAT"}}}, {"name": "StatefulPartitionedCall/GeoFeatureNet/ResUNet/instance_normalization_1/moments/SquaredDifference", "op": "SquaredDifference", "input": ["StatefulPartitionedCall/GeoFeatureNet/ResUNet/conv2d_2/BiasAdd", "StatefulPartitionedCall/GeoFeatureNet/ResUNet/instance_normalization_1/moments/mean"], "attr": {"T": {"type": "DT_FLOAT"}}}, {"name": "StatefulPartitionedCall/GeoFeatureNet/ResUNet/instance_normalization_1/batchnorm/ArithmeticOptimizer/HoistCommonFactor_Add_add_1", "op": "Sub", "input": ["StatefulPartitionedCall/GeoFeatureNet/ResUNet/conv2d_2/BiasAdd", "StatefulPartitionedCall/GeoFeatureNet/ResUNet/instance_normalization_1/moments/mean"], "attr": {"T": {"type": "DT_FLOAT"}}}, {"name": "StatefulPartitionedCall/GeoFeatureNet/ResUNet/sequential/instance_normalization/moments/variance", "op": "Mean", "input": ["StatefulPartitionedCall/GeoFeatureNet/ResUNet/sequential/instance_normalization/moments/SquaredDifference", "StatefulPartitionedCall/GeoFeatureNet/ResUNet/sequential/instance_normalization/moments/variance/reduction_indices"], "attr": {"keep_dims": {"b": true}, "T": {"type": "DT_FLOAT"}, "Tidx": {"type": "DT_INT32"}}}, {"name": "StatefulPartitionedCall/GeoFeatureNet/ResUNet/instance_normalization_1/moments/variance", "op": "Mean", "input": ["StatefulPartitionedCall/GeoFeatureNet/ResUNet/instance_normalization_1/moments/SquaredDifference", "StatefulPartitionedCall/GeoFeatureNet/ResUNet/instance_normalization_1/moments/variance/reduction_indices"], "attr": {"keep_dims": {"b": true}, "T": {"type": "DT_FLOAT"}, "Tidx": {"type": "DT_INT32"}}}, {"name": "StatefulPartitionedCall/GeoFeatureNet/ResUNet/sequential/instance_normalization/batchnorm/add", "op": "AddV2", "input": ["StatefulPartitionedCall/GeoFeatureNet/ResUNet/sequential/instance_normalization/moments/variance", "StatefulPartitionedCall/GeoFeatureNet/ResUNet/sequential/instance_normalization/batchnorm/add/y"], "attr": {"T": {"type": "DT_FLOAT"}}}, {"name": "StatefulPartitionedCall/GeoFeatureNet/ResUNet/instance_normalization_1/batchnorm/add", "op": "AddV2", "input": ["StatefulPartitionedCall/GeoFeatureNet/ResUNet/instance_normalization_1/moments/variance", "StatefulPartitionedCall/GeoFeatureNet/ResUNet/instance_normalization_1/batchnorm/add/y"], "attr": {"T": {"type": "DT_FLOAT"}}}, {"name": "StatefulPartitionedCall/GeoFeatureNet/ResUNet/sequential/instance_normalization/batchnorm/Rsqrt", "op": "Rsqrt", "input": ["StatefulPartitionedCall/GeoFeatureNet/ResUNet/sequential/instance_normalization/batchnorm/add"], "attr": {"T": {"type": "DT_FLOAT"}}}, {"name": "StatefulPartitionedCall/GeoFeatureNet/ResUNet/instance_normalization_1/batchnorm/Rsqrt", "op": "Rsqrt", "input": ["StatefulPartitionedCall/GeoFeatureNet/ResUNet/instance_normalization_1/batchnorm/add"], "attr": {"T": {"type": "DT_FLOAT"}}}, {"name": "StatefulPartitionedCall/GeoFeatureNet/ResUNet/sequential/instance_normalization/batchnorm/ArithmeticOptimizer/HoistCommonFactor_Mul_add_1", "op": "Mul", "input": ["StatefulPartitionedCall/GeoFeatureNet/ResUNet/sequential/instance_normalization/batchnorm/Rsqrt", "StatefulPartitionedCall/GeoFeatureNet/ResUNet/sequential/instance_normalization/batchnorm/ArithmeticOptimizer/HoistCommonFactor_Add_add_1"], "attr": {"T": {"type": "DT_FLOAT"}}}, {"name": "StatefulPartitionedCall/GeoFeatureNet/ResUNet/instance_normalization_1/batchnorm/ArithmeticOptimizer/HoistCommonFactor_Mul_add_1", "op": "Mul", "input": ["StatefulPartitionedCall/GeoFeatureNet/ResUNet/instance_normalization_1/batchnorm/Rsqrt", "StatefulPartitionedCall/GeoFeatureNet/ResUNet/instance_normalization_1/batchnorm/ArithmeticOptimizer/HoistCommonFactor_Add_add_1"], "attr": {"T": {"type": "DT_FLOAT"}}}, {"name": "StatefulPartitionedCall/GeoFeatureNet/ResUNet/sequential/re_lu/Relu", "op": "Relu", "input": ["StatefulPartitionedCall/GeoFeatureNet/ResUNet/sequential/instance_normalization/batchnorm/ArithmeticOptimizer/HoistCommonFactor_Mul_add_1"], "attr": {"T": {"type": "DT_FLOAT"}}}, {"name": "StatefulPartitionedCall/GeoFeatureNet/ResUNet/sequential/conv2d_1/BiasAdd", "op": "_FusedConv2D", "input": ["StatefulPartitionedCall/GeoFeatureNet/ResUNet/sequential/re_lu/Relu", "unknown_1", "unknown_2"], "device": "/device:CPU:0", "attr": {"explicit_paddings": {"list": {}}, "padding": {"s": "U0FNRQ=="}, "strides": {"list": {"i": ["1", "1", "1", "1"]}}, "num_args": {"i": "1"}, "epsilon": {"f": 0.0}, "T": {"type": "DT_FLOAT"}, "use_cudnn_on_gpu": {"b": true}, "dilations": {"list": {"i": ["1", "1", "1", "1"]}}, "data_format": {"s": "TkhXQw=="}, "fused_ops": {"list": {"s": ["Qmlhc0FkZA=="]}}}}, {"name": "StatefulPartitionedCall/GeoFeatureNet/ResUNet/add", "op": "AddV2", "input": ["StatefulPartitionedCall/GeoFeatureNet/ResUNet/sequential/conv2d_1/BiasAdd", "StatefulPartitionedCall/GeoFeatureNet/ResUNet/instance_normalization_1/batchnorm/ArithmeticOptimizer/HoistCommonFactor_Mul_add_1"], "attr": {"T": {"type": "DT_FLOAT"}}}, {"name": "StatefulPartitionedCall/GeoFeatureNet/ResUNet/sequential_1/residual_block/instance_normalization_2/moments/mean", "op": "Mean", "input": ["StatefulPartitionedCall/GeoFeatureNet/ResUNet/add", "StatefulPartitionedCall/GeoFeatureNet/ResUNet/sequential_1/residual_block/instance_normalization_2/moments/mean/reduction_indices"], "attr": {"keep_dims": {"b": true}, "Tidx": {"type": "DT_INT32"}, "T": {"type": "DT_FLOAT"}}}, {"name": "StatefulPartitionedCall/GeoFeatureNet/ResUNet/sequential_1/residual_block/conv2d_5/BiasAdd", "op": "_FusedConv2D", "input": ["StatefulPartitionedCall/GeoFeatureNet/ResUNet/add", "unknown_9", "unknown_10"], "device": "/device:CPU:0", "attr": {"T": {"type": "DT_FLOAT"}, "dilations": {"list": {"i": ["1", "1", "1", "1"]}}, "explicit_paddings": {"list": {}}, "epsilon": {"f": 0.0}, "num_args": {"i": "1"}, "padding": {"s": "U0FNRQ=="}, "fused_ops": {"list": {"s": ["Qmlhc0FkZA=="]}}, "strides": {"list": {"i": ["1", "1", "1", "1"]}}, "use_cudnn_on_gpu": {"b": true}, "data_format": {"s": "TkhXQw=="}}}, {"name": "StatefulPartitionedCall/GeoFeatureNet/ResUNet/sequential_1/residual_block/instance_normalization_2/moments/SquaredDifference", "op": "SquaredDifference", "input": ["StatefulPartitionedCall/GeoFeatureNet/ResUNet/add", "StatefulPartitionedCall/GeoFeatureNet/ResUNet/sequential_1/residual_block/instance_normalization_2/moments/mean"], "attr": {"T": {"type": "DT_FLOAT"}}}, {"name": "StatefulPartitionedCall/GeoFeatureNet/ResUNet/sequential_1/residual_block/instance_normalization_2/batchnorm/ArithmeticOptimizer/HoistCommonFactor_Add_add_1", "op": "Sub", "input": ["StatefulPartitionedCall/GeoFeatureNet/ResUNet/add", "StatefulPartitionedCall/GeoFeatureNet/ResUNet/sequential_1/residual_block/instance_normalization_2/moments/mean"], "attr": {"T": {"type": "DT_FLOAT"}}}, {"name": "StatefulPartitionedCall/GeoFeatureNet/ResUNet/sequential_1/residual_block/instance_normalization_4/moments/mean", "op": "Mean", "input": ["StatefulPartitionedCall/GeoFeatureNet/ResUNet/sequential_1/residual_block/conv2d_5/BiasAdd", "StatefulPartitionedCall/GeoFeatureNet/ResUNet/sequential_1/residual_block/instance_normalization_4/moments/mean/reduction_indices"], "attr": {"Tidx": {"type": "DT_INT32"}, "T": {"type": "DT_FLOAT"}, "keep_dims": {"b": true}}}, {"name": "StatefulPartitionedCall/GeoFeatureNet/ResUNet/sequential_1/residual_block/instance_normalization_2/moments/variance", "op": "Mean", "input": ["StatefulPartitionedCall/GeoFeatureNet/ResUNet/sequential_1/residual_block/instance_normalization_2/moments/SquaredDifference", "StatefulPartitionedCall/GeoFeatureNet/ResUNet/sequential_1/residual_block/instance_normalization_2/moments/variance/reduction_indices"], "attr": {"T": {"type": "DT_FLOAT"}, "Tidx": {"type": "DT_INT32"}, "keep_dims": {"b": true}}}, {"name": "StatefulPartitionedCall/GeoFeatureNet/ResUNet/sequential_1/residual_block/instance_normalization_4/batchnorm/Neg", "op": "Neg", "input": ["StatefulPartitionedCall/GeoFeatureNet/ResUNet/sequential_1/residual_block/instance_normalization_4/moments/mean"], "attr": {"T": {"type": "DT_FLOAT"}}}, {"name": "StatefulPartitionedCall/GeoFeatureNet/ResUNet/sequential_1/residual_block/instance_normalization_4/moments/SquaredDifference", "op": "SquaredDifference", "input": ["StatefulPartitionedCall/GeoFeatureNet/ResUNet/sequential_1/residual_block/conv2d_5/BiasAdd", "StatefulPartitionedCall/GeoFeatureNet/ResUNet/sequential_1/residual_block/instance_normalization_4/moments/mean"], "attr": {"T": {"type": "DT_FLOAT"}}}, {"name": "StatefulPartitionedCall/GeoFeatureNet/ResUNet/sequential_1/residual_block/instance_normalization_2/batchnorm/add", "op": "AddV2", "input": ["StatefulPartitionedCall/GeoFeatureNet/ResUNet/sequential_1/residual_block/instance_normalization_2/moments/variance", "StatefulPartitionedCall/GeoFeatureNet/ResUNet/sequential_1/residual_block/instance_normalization_2/batchnorm/add/y"], "attr": {"T": {"type": "DT_FLOAT"}}}, {"name": "StatefulPartitionedCall/GeoFeatureNet/ResUNet/sequential_1/residual_block/instance_normalization_4/moments/variance", "op": "Mean", "input": ["StatefulPartitionedCall/GeoFeatureNet/ResUNet/sequential_1/residual_block/instance_normalization_4/moments/SquaredDifference", "StatefulPartitionedCall/GeoFeatureNet/ResUNet/sequential_1/residual_block/instance_normalization_4/moments/variance/reduction_indices"], "attr": {"T": {"type": "DT_FLOAT"}, "keep_dims": {"b": true}, "Tidx": {"type": "DT_INT32"}}}, {"name": "StatefulPartitionedCall/GeoFeatureNet/ResUNet/sequential_1/residual_block/instance_normalization_2/batchnorm/Rsqrt", "op": "Rsqrt", "input": ["StatefulPartitionedCall/GeoFeatureNet/ResUNet/sequential_1/residual_block/instance_normalization_2/batchnorm/add"], "attr": {"T": {"type": "DT_FLOAT"}}}, {"name": "StatefulPartitionedCall/GeoFeatureNet/ResUNet/sequential_1/residual_block/instance_normalization_4/batchnorm/add", "op": "AddV2", "input": ["StatefulPartitionedCall/GeoFeatureNet/ResUNet/sequential_1/residual_block/instance_normalization_4/moments/variance", "StatefulPartitionedCall/GeoFeatureNet/ResUNet/sequential_1/residual_block/instance_normalization_4/batchnorm/add/y"], "attr": {"T": {"type": "DT_FLOAT"}}}, {"name": "StatefulPartitionedCall/GeoFeatureNet/ResUNet/sequential_1/residual_block/instance_normalization_2/batchnorm/ArithmeticOptimizer/HoistCommonFactor_Mul_add_1", "op": "Mul", "input": ["StatefulPartitionedCall/GeoFeatureNet/ResUNet/sequential_1/residual_block/instance_normalization_2/batchnorm/Rsqrt", "StatefulPartitionedCall/GeoFeatureNet/ResUNet/sequential_1/residual_block/instance_normalization_2/batchnorm/ArithmeticOptimizer/HoistCommonFactor_Add_add_1"], "attr": {"T": {"type": "DT_FLOAT"}}}, {"name": "StatefulPartitionedCall/GeoFeatureNet/ResUNet/sequential_1/residual_block/instance_normalization_4/batchnorm/Rsqrt", "op": "Rsqrt", "input": ["StatefulPartitionedCall/GeoFeatureNet/ResUNet/sequential_1/residual_block/instance_normalization_4/batchnorm/add"], "attr": {"T": {"type": "DT_FLOAT"}}}, {"name": "StatefulPartitionedCall/GeoFeatureNet/ResUNet/sequential_1/residual_block/re_lu_1/Relu", "op": "_FusedConv2D", "input": ["StatefulPartitionedCall/GeoFeatureNet/ResUNet/sequential_1/residual_block/instance_normalization_2/batchnorm/ArithmeticOptimizer/HoistCommonFactor_Mul_add_1", "unknown_5", "unknown_6"], "device": "/device:CPU:0", "attr": {"explicit_paddings": {"list": {}}, "strides": {"list": {"i": ["1", "1", "1", "1"]}}, "padding": {"s": "U0FNRQ=="}, "dilations": {"list": {"i": ["1", "1", "1", "1"]}}, "data_format": {"s": "TkhXQw=="}, "fused_ops": {"list": {"s": ["Qmlhc0FkZA==", "UmVsdQ=="]}}, "use_cudnn_on_gpu": {"b": true}, "T": {"type": "DT_FLOAT"}, "num_args": {"i": "1"}, "epsilon": {"f": 0.0}}}, {"name": "StatefulPartitionedCall/GeoFeatureNet/ResUNet/sequential_1/residual_block/instance_normalization_4/batchnorm/mul_1", "op": "Mul", "input": ["StatefulPartitionedCall/GeoFeatureNet/ResUNet/sequential_1/residual_block/instance_normalization_4/batchnorm/Neg", "StatefulPartitionedCall/GeoFeatureNet/ResUNet/sequential_1/residual_block/instance_normalization_4/batchnorm/Rsqrt"], "attr": {"T": {"type": "DT_FLOAT"}}}, {"name": "StatefulPartitionedCall/GeoFeatureNet/ResUNet/sequential_1/residual_block/instance_normalization_4/batchnorm/mul", "op": "Mul", "input": ["StatefulPartitionedCall/GeoFeatureNet/ResUNet/sequential_1/residual_block/conv2d_5/BiasAdd", "StatefulPartitionedCall/GeoFeatureNet/ResUNet/sequential_1/residual_block/instance_normalization_4/batchnorm/Rsqrt"], "attr": {"T": {"type": "DT_FLOAT"}}}, {"name": "StatefulPartitionedCall/GeoFeatureNet/ResUNet/sequential_1/residual_block/instance_normalization_3/moments/mean", "op": "Mean", "input": ["StatefulPartitionedCall/GeoFeatureNet/ResUNet/sequential_1/residual_block/re_lu_1/Relu", "StatefulPartitionedCall/GeoFeatureNet/ResUNet/sequential_1/residual_block/instance_normalization_3/moments/mean/reduction_indices"], "attr": {"Tidx": {"type": "DT_INT32"}, "T": {"type": "DT_FLOAT"}, "keep_dims": {"b": true}}}, {"name": "StatefulPartitionedCall/GeoFeatureNet/ResUNet/sequential_1/residual_block/instance_normalization_3/moments/SquaredDifference", "op": "SquaredDifference", "input": ["StatefulPartitionedCall/GeoFeatureNet/ResUNet/sequential_1/residual_block/re_lu_1/Relu", "StatefulPartitionedCall/GeoFeatureNet/ResUNet/sequential_1/residual_block/instance_normalization_3/moments/mean"], "attr": {"T": {"type": "DT_FLOAT"}}}, {"name": "StatefulPartitionedCall/GeoFeatureNet/ResUNet/sequential_1/residual_block/instance_normalization_3/batchnorm/ArithmeticOptimizer/HoistCommonFactor_Add_add_1", "op": "Sub", "input": ["StatefulPartitionedCall/GeoFeatureNet/ResUNet/sequential_1/residual_block/re_lu_1/Relu", "StatefulPartitionedCall/GeoFeatureNet/ResUNet/sequential_1/residual_block/instance_normalization_3/moments/mean"], "attr": {"T": {"type": "DT_FLOAT"}}}, {"name": "StatefulPartitionedCall/GeoFeatureNet/ResUNet/sequential_1/residual_block/instance_normalization_3/moments/variance", "op": "Mean", "input": ["StatefulPartitionedCall/GeoFeatureNet/ResUNet/sequential_1/residual_block/instance_normalization_3/moments/SquaredDifference", "StatefulPartitionedCall/GeoFeatureNet/ResUNet/sequential_1/residual_block/instance_normalization_3/moments/variance/reduction_indices"], "attr": {"Tidx": {"type": "DT_INT32"}, "T": {"type": "DT_FLOAT"}, "keep_dims": {"b": true}}}, {"name": "StatefulPartitionedCall/GeoFeatureNet/ResUNet/sequential_1/residual_block/instance_normalization_3/batchnorm/add", "op": "AddV2", "input": ["StatefulPartitionedCall/GeoFeatureNet/ResUNet/sequential_1/residual_block/instance_normalization_3/moments/variance", "StatefulPartitionedCall/GeoFeatureNet/ResUNet/sequential_1/residual_block/instance_normalization_3/batchnorm/add/y"], "attr": {"T": {"type": "DT_FLOAT"}}}, {"name": "StatefulPartitionedCall/GeoFeatureNet/ResUNet/sequential_1/residual_block/instance_normalization_3/batchnorm/Rsqrt", "op": "Rsqrt", "input": ["StatefulPartitionedCall/GeoFeatureNet/ResUNet/sequential_1/residual_block/instance_normalization_3/batchnorm/add"], "attr": {"T": {"type": "DT_FLOAT"}}}, {"name": "StatefulPartitionedCall/GeoFeatureNet/ResUNet/sequential_1/residual_block/instance_normalization_3/batchnorm/ArithmeticOptimizer/HoistCommonFactor_Mul_add_1", "op": "Mul", "input": ["StatefulPartitionedCall/GeoFeatureNet/ResUNet/sequential_1/residual_block/instance_normalization_3/batchnorm/Rsqrt", "StatefulPartitionedCall/GeoFeatureNet/ResUNet/sequential_1/residual_block/instance_normalization_3/batchnorm/ArithmeticOptimizer/HoistCommonFactor_Add_add_1"], "attr": {"T": {"type": "DT_FLOAT"}}}, {"name": "StatefulPartitionedCall/GeoFeatureNet/ResUNet/sequential_1/residual_block/re_lu_1/Relu_1", "op": "_FusedConv2D", "input": ["StatefulPartitionedCall/GeoFeatureNet/ResUNet/sequential_1/residual_block/instance_normalization_3/batchnorm/ArithmeticOptimizer/HoistCommonFactor_Mul_add_1", "unknown_7", "unknown_8"], "device": "/device:CPU:0", "attr": {"T": {"type": "DT_FLOAT"}, "dilations": {"list": {"i": ["1", "1", "1", "1"]}}, "num_args": {"i": "1"}, "data_format": {"s": "TkhXQw=="}, "explicit_paddings": {"list": {}}, "padding": {"s": "U0FNRQ=="}, "epsilon": {"f": 0.0}, "fused_ops": {"list": {"s": ["Qmlhc0FkZA==", "UmVsdQ=="]}}, "use_cudnn_on_gpu": {"b": true}, "strides": {"list": {"i": ["1", "1", "1", "1"]}}}}, {"name": "StatefulPartitionedCall/GeoFeatureNet/ResUNet/sequential_1/residual_block/ArithmeticOptimizer/AddOpsRewrite_Leaf_1_add", "op": "AddN", "input": ["StatefulPartitionedCall/GeoFeatureNet/ResUNet/sequential_1/residual_block/re_lu_1/Relu_1", "StatefulPartitionedCall/GeoFeatureNet/ResUNet/sequential_1/residual_block/instance_normalization_4/batchnorm/mul"], "attr": {"T": {"type": "DT_FLOAT"}, "N": {"i": "2"}, "_grappler_ArithmeticOptimizer_AddOpsRewriteStage": {"b": true}}}, {"name": "StatefulPartitionedCall/GeoFeatureNet/ResUNet/sequential_1/residual_block/ArithmeticOptimizer/AddOpsRewrite_add", "op": "Add", "input": ["StatefulPartitionedCall/GeoFeatureNet/ResUNet/sequential_1/residual_block/instance_normalization_4/batchnorm/mul_1", "StatefulPartitionedCall/GeoFeatureNet/ResUNet/sequential_1/residual_block/ArithmeticOptimizer/AddOpsRewrite_Leaf_1_add"], "attr": {"T": {"type": "DT_FLOAT"}, "_grappler_ArithmeticOptimizer_AddOpsRewriteStage": {"b": true}}}, {"name": "StatefulPartitionedCall/GeoFeatureNet/ResUNet/sequential_1/residual_block_1/instance_normalization_5/moments/mean", "op": "Mean", "input": ["StatefulPartitionedCall/GeoFeatureNet/ResUNet/sequential_1/residual_block/ArithmeticOptimizer/AddOpsRewrite_add", "StatefulPartitionedCall/GeoFeatureNet/ResUNet/sequential_1/residual_block_1/instance_normalization_5/moments/mean/reduction_indices"], "attr": {"keep_dims": {"b": true}, "Tidx": {"type": "DT_INT32"}, "T": {"type": "DT_FLOAT"}}}, {"name": "StatefulPartitionedCall/GeoFeatureNet/ResUNet/sequential_1/residual_block_1/conv2d_8/BiasAdd", "op": "_FusedConv2D", "input": ["StatefulPartitionedCall/GeoFeatureNet/ResUNet/sequential_1/residual_block/ArithmeticOptimizer/AddOpsRewrite_add", "unknown_15", "unknown_16"], "device": "/device:CPU:0", "attr": {"data_format": {"s": "TkhXQw=="}, "padding": {"s": "U0FNRQ=="}, "explicit_paddings": {"list": {}}, "epsilon": {"f": 0.0}, "num_args": {"i": "1"}, "fused_ops": {"list": {"s": ["Qmlhc0FkZA=="]}}, "use_cudnn_on_gpu": {"b": true}, "T": {"type": "DT_FLOAT"}, "dilations": {"list": {"i": ["1", "1", "1", "1"]}}, "strides": {"list": {"i": ["1", "2", "2", "1"]}}}}, {"name": "StatefulPartitionedCall/GeoFeatureNet/ResUNet/sequential_1/residual_block_1/instance_normalization_5/moments/SquaredDifference", "op": "SquaredDifference", "input": ["StatefulPartitionedCall/GeoFeatureNet/ResUNet/sequential_1/residual_block/ArithmeticOptimizer/AddOpsRewrite_add", "StatefulPartitionedCall/GeoFeatureNet/ResUNet/sequential_1/residual_block_1/instance_normalization_5/moments/mean"], "attr": {"T": {"type": "DT_FLOAT"}}}, {"name": "StatefulPartitionedCall/GeoFeatureNet/ResUNet/sequential_1/residual_block_1/instance_normalization_5/batchnorm/ArithmeticOptimizer/HoistCommonFactor_Add_add_1", "op": "Sub", "input": ["StatefulPartitionedCall/GeoFeatureNet/ResUNet/sequential_1/residual_block/ArithmeticOptimizer/AddOpsRewrite_add", "StatefulPartitionedCall/GeoFeatureNet/ResUNet/sequential_1/residual_block_1/instance_normalization_5/moments/mean"], "attr": {"T": {"type": "DT_FLOAT"}}}, {"name": "StatefulPartitionedCall/GeoFeatureNet/ResUNet/sequential_1/residual_block_1/instance_normalization_7/moments/mean", "op": "Mean", "input": ["StatefulPartitionedCall/GeoFeatureNet/ResUNet/sequential_1/residual_block_1/conv2d_8/BiasAdd", "StatefulPartitionedCall/GeoFeatureNet/ResUNet/sequential_1/residual_block_1/instance_normalization_7/moments/mean/reduction_indices"], "attr": {"T": {"type": "DT_FLOAT"}, "Tidx": {"type": "DT_INT32"}, "keep_dims": {"b": true}}}, {"name": "StatefulPartitionedCall/GeoFeatureNet/ResUNet/sequential_1/residual_block_1/instance_normalization_5/moments/variance", "op": "Mean", "input": ["StatefulPartitionedCall/GeoFeatureNet/ResUNet/sequential_1/residual_block_1/instance_normalization_5/moments/SquaredDifference", "StatefulPartitionedCall/GeoFeatureNet/ResUNet/sequential_1/residual_block_1/instance_normalization_5/moments/variance/reduction_indices"], "attr": {"T": {"type": "DT_FLOAT"}, "keep_dims": {"b": true}, "Tidx": {"type": "DT_INT32"}}}, {"name": "StatefulPartitionedCall/GeoFeatureNet/ResUNet/sequential_1/residual_block_1/instance_normalization_7/moments/SquaredDifference", "op": "SquaredDifference", "input": ["StatefulPartitionedCall/GeoFeatureNet/ResUNet/sequential_1/residual_block_1/conv2d_8/BiasAdd", "StatefulPartitionedCall/GeoFeatureNet/ResUNet/sequential_1/residual_block_1/instance_normalization_7/moments/mean"], "attr": {"T": {"type": "DT_FLOAT"}}}, {"name": "StatefulPartitionedCall/GeoFeatureNet/ResUNet/sequential_1/residual_block_1/instance_normalization_7/batchnorm/ArithmeticOptimizer/HoistCommonFactor_Add_add_1", "op": "Sub", "input": ["StatefulPartitionedCall/GeoFeatureNet/ResUNet/sequential_1/residual_block_1/conv2d_8/BiasAdd", "StatefulPartitionedCall/GeoFeatureNet/ResUNet/sequential_1/residual_block_1/instance_normalization_7/moments/mean"], "attr": {"T": {"type": "DT_FLOAT"}}}, {"name": "StatefulPartitionedCall/GeoFeatureNet/ResUNet/sequential_1/residual_block_1/instance_normalization_5/batchnorm/add", "op": "AddV2", "input": ["StatefulPartitionedCall/GeoFeatureNet/ResUNet/sequential_1/residual_block_1/instance_normalization_5/moments/variance", "StatefulPartitionedCall/GeoFeatureNet/ResUNet/sequential_1/residual_block_1/instance_normalization_5/batchnorm/add/y"], "attr": {"T": {"type": "DT_FLOAT"}}}, {"name": "StatefulPartitionedCall/GeoFeatureNet/ResUNet/sequential_1/residual_block_1/instance_normalization_7/moments/variance", "op": "Mean", "input": ["StatefulPartitionedCall/GeoFeatureNet/ResUNet/sequential_1/residual_block_1/instance_normalization_7/moments/SquaredDifference", "StatefulPartitionedCall/GeoFeatureNet/ResUNet/sequential_1/residual_block_1/instance_normalization_7/moments/variance/reduction_indices"], "attr": {"Tidx": {"type": "DT_INT32"}, "keep_dims": {"b": true}, "T": {"type": "DT_FLOAT"}}}, {"name": "StatefulPartitionedCall/GeoFeatureNet/ResUNet/sequential_1/residual_block_1/instance_normalization_5/batchnorm/Rsqrt", "op": "Rsqrt", "input": ["StatefulPartitionedCall/GeoFeatureNet/ResUNet/sequential_1/residual_block_1/instance_normalization_5/batchnorm/add"], "attr": {"T": {"type": "DT_FLOAT"}}}, {"name": "StatefulPartitionedCall/GeoFeatureNet/ResUNet/sequential_1/residual_block_1/instance_normalization_7/batchnorm/add", "op": "AddV2", "input": ["StatefulPartitionedCall/GeoFeatureNet/ResUNet/sequential_1/residual_block_1/instance_normalization_7/moments/variance", "StatefulPartitionedCall/GeoFeatureNet/ResUNet/sequential_1/residual_block_1/instance_normalization_7/batchnorm/add/y"], "attr": {"T": {"type": "DT_FLOAT"}}}, {"name": "StatefulPartitionedCall/GeoFeatureNet/ResUNet/sequential_1/residual_block_1/instance_normalization_5/batchnorm/ArithmeticOptimizer/HoistCommonFactor_Mul_add_1", "op": "Mul", "input": ["StatefulPartitionedCall/GeoFeatureNet/ResUNet/sequential_1/residual_block_1/instance_normalization_5/batchnorm/Rsqrt", "StatefulPartitionedCall/GeoFeatureNet/ResUNet/sequential_1/residual_block_1/instance_normalization_5/batchnorm/ArithmeticOptimizer/HoistCommonFactor_Add_add_1"], "attr": {"T": {"type": "DT_FLOAT"}}}, {"name": "StatefulPartitionedCall/GeoFeatureNet/ResUNet/sequential_1/residual_block_1/instance_normalization_7/batchnorm/Rsqrt", "op": "Rsqrt", "input": ["StatefulPartitionedCall/GeoFeatureNet/ResUNet/sequential_1/residual_block_1/instance_normalization_7/batchnorm/add"], "attr": {"T": {"type": "DT_FLOAT"}}}, {"name": "StatefulPartitionedCall/GeoFeatureNet/ResUNet/sequential_1/residual_block_1/re_lu_2/Relu", "op": "_FusedConv2D", "input": ["StatefulPartitionedCall/GeoFeatureNet/ResUNet/sequential_1/residual_block_1/instance_normalization_5/batchnorm/ArithmeticOptimizer/HoistCommonFactor_Mul_add_1", "unknown_11", "unknown_12"], "device": "/device:CPU:0", "attr": {"use_cudnn_on_gpu": {"b": true}, "padding": {"s": "U0FNRQ=="}, "num_args": {"i": "1"}, "data_format": {"s": "TkhXQw=="}, "explicit_paddings": {"list": {}}, "T": {"type": "DT_FLOAT"}, "epsilon": {"f": 0.0}, "dilations": {"list": {"i": ["1", "1", "1", "1"]}}, "strides": {"list": {"i": ["1", "2", "2", "1"]}}, "fused_ops": {"list": {"s": ["Qmlhc0FkZA==", "UmVsdQ=="]}}}}, {"name": "StatefulPartitionedCall/GeoFeatureNet/ResUNet/sequential_1/residual_block_1/instance_normalization_7/batchnorm/ArithmeticOptimizer/HoistCommonFactor_Mul_add_1", "op": "Mul", "input": ["StatefulPartitionedCall/GeoFeatureNet/ResUNet/sequential_1/residual_block_1/instance_normalization_7/batchnorm/Rsqrt", "StatefulPartitionedCall/GeoFeatureNet/ResUNet/sequential_1/residual_block_1/instance_normalization_7/batchnorm/ArithmeticOptimizer/HoistCommonFactor_Add_add_1"], "attr": {"T": {"type": "DT_FLOAT"}}}, {"name": "StatefulPartitionedCall/GeoFeatureNet/ResUNet/sequential_1/residual_block_1/instance_normalization_6/moments/mean", "op": "Mean", "input": ["StatefulPartitionedCall/GeoFeatureNet/ResUNet/sequential_1/residual_block_1/re_lu_2/Relu", "StatefulPartitionedCall/GeoFeatureNet/ResUNet/sequential_1/residual_block_1/instance_normalization_6/moments/mean/reduction_indices"], "attr": {"keep_dims": {"b": true}, "Tidx": {"type": "DT_INT32"}, "T": {"type": "DT_FLOAT"}}}, {"name": "StatefulPartitionedCall/GeoFeatureNet/ResUNet/sequential_1/residual_block_1/instance_normalization_6/moments/SquaredDifference", "op": "SquaredDifference", "input": ["StatefulPartitionedCall/GeoFeatureNet/ResUNet/sequential_1/residual_block_1/re_lu_2/Relu", "StatefulPartitionedCall/GeoFeatureNet/ResUNet/sequential_1/residual_block_1/instance_normalization_6/moments/mean"], "attr": {"T": {"type": "DT_FLOAT"}}}, {"name": "StatefulPartitionedCall/GeoFeatureNet/ResUNet/sequential_1/residual_block_1/instance_normalization_6/batchnorm/ArithmeticOptimizer/HoistCommonFactor_Add_add_1", "op": "Sub", "input": ["StatefulPartitionedCall/GeoFeatureNet/ResUNet/sequential_1/residual_block_1/re_lu_2/Relu", "StatefulPartitionedCall/GeoFeatureNet/ResUNet/sequential_1/residual_block_1/instance_normalization_6/moments/mean"], "attr": {"T": {"type": "DT_FLOAT"}}}, {"name": "StatefulPartitionedCall/GeoFeatureNet/ResUNet/sequential_1/residual_block_1/instance_normalization_6/moments/variance", "op": "Mean", "input": ["StatefulPartitionedCall/GeoFeatureNet/ResUNet/sequential_1/residual_block_1/instance_normalization_6/moments/SquaredDifference", "StatefulPartitionedCall/GeoFeatureNet/ResUNet/sequential_1/residual_block_1/instance_normalization_6/moments/variance/reduction_indices"], "attr": {"keep_dims": {"b": true}, "Tidx": {"type": "DT_INT32"}, "T": {"type": "DT_FLOAT"}}}, {"name": "StatefulPartitionedCall/GeoFeatureNet/ResUNet/sequential_1/residual_block_1/instance_normalization_6/batchnorm/add", "op": "AddV2", "input": ["StatefulPartitionedCall/GeoFeatureNet/ResUNet/sequential_1/residual_block_1/instance_normalization_6/moments/variance", "StatefulPartitionedCall/GeoFeatureNet/ResUNet/sequential_1/residual_block_1/instance_normalization_6/batchnorm/add/y"], "attr": {"T": {"type": "DT_FLOAT"}}}, {"name": "StatefulPartitionedCall/GeoFeatureNet/ResUNet/sequential_1/residual_block_1/instance_normalization_6/batchnorm/Rsqrt", "op": "Rsqrt", "input": ["StatefulPartitionedCall/GeoFeatureNet/ResUNet/sequential_1/residual_block_1/instance_normalization_6/batchnorm/add"], "attr": {"T": {"type": "DT_FLOAT"}}}, {"name": "StatefulPartitionedCall/GeoFeatureNet/ResUNet/sequential_1/residual_block_1/instance_normalization_6/batchnorm/ArithmeticOptimizer/HoistCommonFactor_Mul_add_1", "op": "Mul", "input": ["StatefulPartitionedCall/GeoFeatureNet/ResUNet/sequential_1/residual_block_1/instance_normalization_6/batchnorm/Rsqrt", "StatefulPartitionedCall/GeoFeatureNet/ResUNet/sequential_1/residual_block_1/instance_normalization_6/batchnorm/ArithmeticOptimizer/HoistCommonFactor_Add_add_1"], "attr": {"T": {"type": "DT_FLOAT"}}}, {"name": "StatefulPartitionedCall/GeoFeatureNet/ResUNet/sequential_1/residual_block_1/re_lu_2/Relu_1", "op": "_FusedConv2D", "input": ["StatefulPartitionedCall/GeoFeatureNet/ResUNet/sequential_1/residual_block_1/instance_normalization_6/batchnorm/ArithmeticOptimizer/HoistCommonFactor_Mul_add_1", "unknown_13", "unknown_14"], "device": "/device:CPU:0", "attr": {"strides": {"list": {"i": ["1", "1", "1", "1"]}}, "fused_ops": {"list": {"s": ["Qmlhc0FkZA==", "UmVsdQ=="]}}, "data_format": {"s": "TkhXQw=="}, "explicit_paddings": {"list": {}}, "T": {"type": "DT_FLOAT"}, "num_args": {"i": "1"}, "use_cudnn_on_gpu": {"b": true}, "padding": {"s": "U0FNRQ=="}, "dilations": {"list": {"i": ["1", "1", "1", "1"]}}, "epsilon": {"f": 0.0}}}, {"name": "StatefulPartitionedCall/GeoFeatureNet/ResUNet/sequential_1/residual_block_1/add", "op": "AddV2", "input": ["StatefulPartitionedCall/GeoFeatureNet/ResUNet/sequential_1/residual_block_1/re_lu_2/Relu_1", "StatefulPartitionedCall/GeoFeatureNet/ResUNet/sequential_1/residual_block_1/instance_normalization_7/batchnorm/ArithmeticOptimizer/HoistCommonFactor_Mul_add_1"], "attr": {"T": {"type": "DT_FLOAT"}}}, {"name": "StatefulPartitionedCall/GeoFeatureNet/ResUNet/sequential_2/residual_block_2/instance_normalization_8/moments/mean", "op": "Mean", "input": ["StatefulPartitionedCall/GeoFeatureNet/ResUNet/sequential_1/residual_block_1/add", "StatefulPartitionedCall/GeoFeatureNet/ResUNet/sequential_2/residual_block_2/instance_normalization_8/moments/mean/reduction_indices"], "attr": {"T": {"type": "DT_FLOAT"}, "keep_dims": {"b": true}, "Tidx": {"type": "DT_INT32"}}}, {"name": "StatefulPartitionedCall/GeoFeatureNet/ResUNet/sequential_2/residual_block_2/conv2d_11/BiasAdd", "op": "_FusedConv2D", "input": ["StatefulPartitionedCall/GeoFeatureNet/ResUNet/sequential_1/residual_block_1/add", "unknown_21", "unknown_22"], "device": "/device:CPU:0", "attr": {"epsilon": {"f": 0.0}, "T": {"type": "DT_FLOAT"}, "strides": {"list": {"i": ["1", "1", "1", "1"]}}, "dilations": {"list": {"i": ["1", "1", "1", "1"]}}, "data_format": {"s": "TkhXQw=="}, "num_args": {"i": "1"}, "use_cudnn_on_gpu": {"b": true}, "explicit_paddings": {"list": {}}, "padding": {"s": "U0FNRQ=="}, "fused_ops": {"list": {"s": ["Qmlhc0FkZA=="]}}}}, {"name": "StatefulPartitionedCall/GeoFeatureNet/ResUNet/sequential_2/residual_block_2/instance_normalization_8/moments/SquaredDifference", "op": "SquaredDifference", "input": ["StatefulPartitionedCall/GeoFeatureNet/ResUNet/sequential_1/residual_block_1/add", "StatefulPartitionedCall/GeoFeatureNet/ResUNet/sequential_2/residual_block_2/instance_normalization_8/moments/mean"], "attr": {"T": {"type": "DT_FLOAT"}}}, {"name": "StatefulPartitionedCall/GeoFeatureNet/ResUNet/sequential_2/residual_block_2/instance_normalization_8/batchnorm/ArithmeticOptimizer/HoistCommonFactor_Add_add_1", "op": "Sub", "input": ["StatefulPartitionedCall/GeoFeatureNet/ResUNet/sequential_1/residual_block_1/add", "StatefulPartitionedCall/GeoFeatureNet/ResUNet/sequential_2/residual_block_2/instance_normalization_8/moments/mean"], "attr": {"T": {"type": "DT_FLOAT"}}}, {"name": "StatefulPartitionedCall/GeoFeatureNet/ResUNet/sequential_2/residual_block_2/instance_normalization_10/moments/mean", "op": "Mean", "input": ["StatefulPartitionedCall/GeoFeatureNet/ResUNet/sequential_2/residual_block_2/conv2d_11/BiasAdd", "StatefulPartitionedCall/GeoFeatureNet/ResUNet/sequential_2/residual_block_2/instance_normalization_10/moments/mean/reduction_indices"], "attr": {"keep_dims": {"b": true}, "T": {"type": "DT_FLOAT"}, "Tidx": {"type": "DT_INT32"}}}, {"name": "StatefulPartitionedCall/GeoFeatureNet/ResUNet/sequential_2/residual_block_2/instance_normalization_8/moments/variance", "op": "Mean", "input": ["StatefulPartitionedCall/GeoFeatureNet/ResUNet/sequential_2/residual_block_2/instance_normalization_8/moments/SquaredDifference", "StatefulPartitionedCall/GeoFeatureNet/ResUNet/sequential_2/residual_block_2/instance_normalization_8/moments/variance/reduction_indices"], "attr": {"T": {"type": "DT_FLOAT"}, "keep_dims": {"b": true}, "Tidx": {"type": "DT_INT32"}}}, {"name": "StatefulPartitionedCall/GeoFeatureNet/ResUNet/sequential_2/residual_block_2/instance_normalization_10/batchnorm/Neg", "op": "Neg", "input": ["StatefulPartitionedCall/GeoFeatureNet/ResUNet/sequential_2/residual_block_2/instance_normalization_10/moments/mean"], "attr": {"T": {"type": "DT_FLOAT"}}}, {"name": "StatefulPartitionedCall/GeoFeatureNet/ResUNet/sequential_2/residual_block_2/instance_normalization_10/moments/SquaredDifference", "op": "SquaredDifference", "input": ["StatefulPartitionedCall/GeoFeatureNet/ResUNet/sequential_2/residual_block_2/conv2d_11/BiasAdd", "StatefulPartitionedCall/GeoFeatureNet/ResUNet/sequential_2/residual_block_2/instance_normalization_10/moments/mean"], "attr": {"T": {"type": "DT_FLOAT"}}}, {"name": "StatefulPartitionedCall/GeoFeatureNet/ResUNet/sequential_2/residual_block_2/instance_normalization_8/batchnorm/add", "op": "AddV2", "input": ["StatefulPartitionedCall/GeoFeatureNet/ResUNet/sequential_2/residual_block_2/instance_normalization_8/moments/variance", "StatefulPartitionedCall/GeoFeatureNet/ResUNet/sequential_2/residual_block_2/instance_normalization_8/batchnorm/add/y"], "attr": {"T": {"type": "DT_FLOAT"}}}, {"name": "StatefulPartitionedCall/GeoFeatureNet/ResUNet/sequential_2/residual_block_2/instance_normalization_10/moments/variance", "op": "Mean", "input": ["StatefulPartitionedCall/GeoFeatureNet/ResUNet/sequential_2/residual_block_2/instance_normalization_10/moments/SquaredDifference", "StatefulPartitionedCall/GeoFeatureNet/ResUNet/sequential_2/residual_block_2/instance_normalization_10/moments/variance/reduction_indices"], "attr": {"T": {"type": "DT_FLOAT"}, "keep_dims": {"b": true}, "Tidx": {"type": "DT_INT32"}}}, {"name": "StatefulPartitionedCall/GeoFeatureNet/ResUNet/sequential_2/residual_block_2/instance_normalization_8/batchnorm/Rsqrt", "op": "Rsqrt", "input": ["StatefulPartitionedCall/GeoFeatureNet/ResUNet/sequential_2/residual_block_2/instance_normalization_8/batchnorm/add"], "attr": {"T": {"type": "DT_FLOAT"}}}, {"name": "StatefulPartitionedCall/GeoFeatureNet/ResUNet/sequential_2/residual_block_2/instance_normalization_10/batchnorm/add", "op": "AddV2", "input": ["StatefulPartitionedCall/GeoFeatureNet/ResUNet/sequential_2/residual_block_2/instance_normalization_10/moments/variance", "StatefulPartitionedCall/GeoFeatureNet/ResUNet/sequential_2/residual_block_2/instance_normalization_10/batchnorm/add/y"], "attr": {"T": {"type": "DT_FLOAT"}}}, {"name": "StatefulPartitionedCall/GeoFeatureNet/ResUNet/sequential_2/residual_block_2/instance_normalization_8/batchnorm/ArithmeticOptimizer/HoistCommonFactor_Mul_add_1", "op": "Mul", "input": ["StatefulPartitionedCall/GeoFeatureNet/ResUNet/sequential_2/residual_block_2/instance_normalization_8/batchnorm/Rsqrt", "StatefulPartitionedCall/GeoFeatureNet/ResUNet/sequential_2/residual_block_2/instance_normalization_8/batchnorm/ArithmeticOptimizer/HoistCommonFactor_Add_add_1"], "attr": {"T": {"type": "DT_FLOAT"}}}, {"name": "StatefulPartitionedCall/GeoFeatureNet/ResUNet/sequential_2/residual_block_2/instance_normalization_10/batchnorm/Rsqrt", "op": "Rsqrt", "input": ["StatefulPartitionedCall/GeoFeatureNet/ResUNet/sequential_2/residual_block_2/instance_normalization_10/batchnorm/add"], "attr": {"T": {"type": "DT_FLOAT"}}}, {"name": "StatefulPartitionedCall/GeoFeatureNet/ResUNet/sequential_2/residual_block_2/re_lu_3/Relu", "op": "_FusedConv2D", "input": ["StatefulPartitionedCall/GeoFeatureNet/ResUNet/sequential_2/residual_block_2/instance_normalization_8/batchnorm/ArithmeticOptimizer/HoistCommonFactor_Mul_add_1", "unknown_17", "unknown_18"], "device": "/device:CPU:0", "attr": {"padding": {"s": "U0FNRQ=="}, "dilations": {"list": {"i": ["1", "1", "1", "1"]}}, "use_cudnn_on_gpu": {"b": true}, "epsilon": {"f": 0.0}, "fused_ops": {"list": {"s": ["Qmlhc0FkZA==", "UmVsdQ=="]}}, "T": {"type": "DT_FLOAT"}, "explicit_paddings": {"list": {}}, "data_format": {"s": "TkhXQw=="}, "num_args": {"i": "1"}, "strides": {"list": {"i": ["1", "1", "1", "1"]}}}}, {"name": "StatefulPartitionedCall/GeoFeatureNet/ResUNet/sequential_2/residual_block_2/instance_normalization_10/batchnorm/mul_1", "op": "Mul", "input": ["StatefulPartitionedCall/GeoFeatureNet/ResUNet/sequential_2/residual_block_2/instance_normalization_10/batchnorm/Neg", "StatefulPartitionedCall/GeoFeatureNet/ResUNet/sequential_2/residual_block_2/instance_normalization_10/batchnorm/Rsqrt"], "attr": {"T": {"type": "DT_FLOAT"}}}, {"name": "StatefulPartitionedCall/GeoFeatureNet/ResUNet/sequential_2/residual_block_2/instance_normalization_10/batchnorm/mul", "op": "Mul", "input": ["StatefulPartitionedCall/GeoFeatureNet/ResUNet/sequential_2/residual_block_2/conv2d_11/BiasAdd", "StatefulPartitionedCall/GeoFeatureNet/ResUNet/sequential_2/residual_block_2/instance_normalization_10/batchnorm/Rsqrt"], "attr": {"T": {"type": "DT_FLOAT"}}}, {"name": "StatefulPartitionedCall/GeoFeatureNet/ResUNet/sequential_2/residual_block_2/instance_normalization_9/moments/mean", "op": "Mean", "input": ["StatefulPartitionedCall/GeoFeatureNet/ResUNet/sequential_2/residual_block_2/re_lu_3/Relu", "StatefulPartitionedCall/GeoFeatureNet/ResUNet/sequential_2/residual_block_2/instance_normalization_9/moments/mean/reduction_indices"], "attr": {"T": {"type": "DT_FLOAT"}, "Tidx": {"type": "DT_INT32"}, "keep_dims": {"b": true}}}, {"name": "StatefulPartitionedCall/GeoFeatureNet/ResUNet/sequential_2/residual_block_2/instance_normalization_9/moments/SquaredDifference", "op": "SquaredDifference", "input": ["StatefulPartitionedCall/GeoFeatureNet/ResUNet/sequential_2/residual_block_2/re_lu_3/Relu", "StatefulPartitionedCall/GeoFeatureNet/ResUNet/sequential_2/residual_block_2/instance_normalization_9/moments/mean"], "attr": {"T": {"type": "DT_FLOAT"}}}, {"name": "StatefulPartitionedCall/GeoFeatureNet/ResUNet/sequential_2/residual_block_2/instance_normalization_9/batchnorm/ArithmeticOptimizer/HoistCommonFactor_Add_add_1", "op": "Sub", "input": ["StatefulPartitionedCall/GeoFeatureNet/ResUNet/sequential_2/residual_block_2/re_lu_3/Relu", "StatefulPartitionedCall/GeoFeatureNet/ResUNet/sequential_2/residual_block_2/instance_normalization_9/moments/mean"], "attr": {"T": {"type": "DT_FLOAT"}}}, {"name": "StatefulPartitionedCall/GeoFeatureNet/ResUNet/sequential_2/residual_block_2/instance_normalization_9/moments/variance", "op": "Mean", "input": ["StatefulPartitionedCall/GeoFeatureNet/ResUNet/sequential_2/residual_block_2/instance_normalization_9/moments/SquaredDifference", "StatefulPartitionedCall/GeoFeatureNet/ResUNet/sequential_2/residual_block_2/instance_normalization_9/moments/variance/reduction_indices"], "attr": {"Tidx": {"type": "DT_INT32"}, "keep_dims": {"b": true}, "T": {"type": "DT_FLOAT"}}}, {"name": "StatefulPartitionedCall/GeoFeatureNet/ResUNet/sequential_2/residual_block_2/instance_normalization_9/batchnorm/add", "op": "AddV2", "input": ["StatefulPartitionedCall/GeoFeatureNet/ResUNet/sequential_2/residual_block_2/instance_normalization_9/moments/variance", "StatefulPartitionedCall/GeoFeatureNet/ResUNet/sequential_2/residual_block_2/instance_normalization_9/batchnorm/add/y"], "attr": {"T": {"type": "DT_FLOAT"}}}, {"name": "StatefulPartitionedCall/GeoFeatureNet/ResUNet/sequential_2/residual_block_2/instance_normalization_9/batchnorm/Rsqrt", "op": "Rsqrt", "input": ["StatefulPartitionedCall/GeoFeatureNet/ResUNet/sequential_2/residual_block_2/instance_normalization_9/batchnorm/add"], "attr": {"T": {"type": "DT_FLOAT"}}}, {"name": "StatefulPartitionedCall/GeoFeatureNet/ResUNet/sequential_2/residual_block_2/instance_normalization_9/batchnorm/ArithmeticOptimizer/HoistCommonFactor_Mul_add_1", "op": "Mul", "input": ["StatefulPartitionedCall/GeoFeatureNet/ResUNet/sequential_2/residual_block_2/instance_normalization_9/batchnorm/Rsqrt", "StatefulPartitionedCall/GeoFeatureNet/ResUNet/sequential_2/residual_block_2/instance_normalization_9/batchnorm/ArithmeticOptimizer/HoistCommonFactor_Add_add_1"], "attr": {"T": {"type": "DT_FLOAT"}}}, {"name": "StatefulPartitionedCall/GeoFeatureNet/ResUNet/sequential_2/residual_block_2/re_lu_3/Relu_1", "op": "_FusedConv2D", "input": ["StatefulPartitionedCall/GeoFeatureNet/ResUNet/sequential_2/residual_block_2/instance_normalization_9/batchnorm/ArithmeticOptimizer/HoistCommonFactor_Mul_add_1", "unknown_19", "unknown_20"], "device": "/device:CPU:0", "attr": {"dilations": {"list": {"i": ["1", "1", "1", "1"]}}, "epsilon": {"f": 0.0}, "explicit_paddings": {"list": {}}, "data_format": {"s": "TkhXQw=="}, "fused_ops": {"list": {"s": ["Qmlhc0FkZA==", "UmVsdQ=="]}}, "num_args": {"i": "1"}, "T": {"type": "DT_FLOAT"}, "strides": {"list": {"i": ["1", "1", "1", "1"]}}, "use_cudnn_on_gpu": {"b": true}, "padding": {"s": "U0FNRQ=="}}}, {"name": "StatefulPartitionedCall/GeoFeatureNet/ResUNet/sequential_2/residual_block_2/ArithmeticOptimizer/AddOpsRewrite_Leaf_1_add", "op": "AddN", "input": ["StatefulPartitionedCall/GeoFeatureNet/ResUNet/sequential_2/residual_block_2/re_lu_3/Relu_1", "StatefulPartitionedCall/GeoFeatureNet/ResUNet/sequential_2/residual_block_2/instance_normalization_10/batchnorm/mul"], "attr": {"T": {"type": "DT_FLOAT"}, "_grappler_ArithmeticOptimizer_AddOpsRewriteStage": {"b": true}, "N": {"i": "2"}}}, {"name": "StatefulPartitionedCall/GeoFeatureNet/ResUNet/sequential_2/residual_block_2/ArithmeticOptimizer/AddOpsRewrite_add", "op": "Add", "input": ["StatefulPartitionedCall/GeoFeatureNet/ResUNet/sequential_2/residual_block_2/instance_normalization_10/batchnorm/mul_1", "StatefulPartitionedCall/GeoFeatureNet/ResUNet/sequential_2/residual_block_2/ArithmeticOptimizer/AddOpsRewrite_Leaf_1_add"], "attr": {"T": {"type": "DT_FLOAT"}, "_grappler_ArithmeticOptimizer_AddOpsRewriteStage": {"b": true}}}, {"name": "StatefulPartitionedCall/GeoFeatureNet/ResUNet/sequential_2/residual_block_3/instance_normalization_11/moments/mean", "op": "Mean", "input": ["StatefulPartitionedCall/GeoFeatureNet/ResUNet/sequential_2/residual_block_2/ArithmeticOptimizer/AddOpsRewrite_add", "StatefulPartitionedCall/GeoFeatureNet/ResUNet/sequential_2/residual_block_3/instance_normalization_11/moments/mean/reduction_indices"], "attr": {"Tidx": {"type": "DT_INT32"}, "keep_dims": {"b": true}, "T": {"type": "DT_FLOAT"}}}, {"name": "StatefulPartitionedCall/GeoFeatureNet/ResUNet/sequential_2/residual_block_3/conv2d_14/BiasAdd", "op": "_FusedConv2D", "input": ["StatefulPartitionedCall/GeoFeatureNet/ResUNet/sequential_2/residual_block_2/ArithmeticOptimizer/AddOpsRewrite_add", "unknown_27", "unknown_28"], "device": "/device:CPU:0", "attr": {"dilations": {"list": {"i": ["1", "1", "1", "1"]}}, "fused_ops": {"list": {"s": ["Qmlhc0FkZA=="]}}, "explicit_paddings": {"list": {}}, "epsilon": {"f": 0.0}, "num_args": {"i": "1"}, "use_cudnn_on_gpu": {"b": true}, "T": {"type": "DT_FLOAT"}, "data_format": {"s": "TkhXQw=="}, "strides": {"list": {"i": ["1", "2", "2", "1"]}}, "padding": {"s": "U0FNRQ=="}}}, {"name": "StatefulPartitionedCall/GeoFeatureNet/ResUNet/sequential_2/residual_block_3/instance_normalization_11/moments/SquaredDifference", "op": "SquaredDifference", "input": ["StatefulPartitionedCall/GeoFeatureNet/ResUNet/sequential_2/residual_block_2/ArithmeticOptimizer/AddOpsRewrite_add", "StatefulPartitionedCall/GeoFeatureNet/ResUNet/sequential_2/residual_block_3/instance_normalization_11/moments/mean"], "attr": {"T": {"type": "DT_FLOAT"}}}, {"name": "StatefulPartitionedCall/GeoFeatureNet/ResUNet/sequential_2/residual_block_3/instance_normalization_11/batchnorm/ArithmeticOptimizer/HoistCommonFactor_Add_add_1", "op": "Sub", "input": ["StatefulPartitionedCall/GeoFeatureNet/ResUNet/sequential_2/residual_block_2/ArithmeticOptimizer/AddOpsRewrite_add", "StatefulPartitionedCall/GeoFeatureNet/ResUNet/sequential_2/residual_block_3/instance_normalization_11/moments/mean"], "attr": {"T": {"type": "DT_FLOAT"}}}, {"name": "StatefulPartitionedCall/GeoFeatureNet/ResUNet/sequential_2/residual_block_3/instance_normalization_13/moments/mean", "op": "Mean", "input": ["StatefulPartitionedCall/GeoFeatureNet/ResUNet/sequential_2/residual_block_3/conv2d_14/BiasAdd", "StatefulPartitionedCall/GeoFeatureNet/ResUNet/sequential_2/residual_block_3/instance_normalization_13/moments/mean/reduction_indices"], "attr": {"Tidx": {"type": "DT_INT32"}, "T": {"type": "DT_FLOAT"}, "keep_dims": {"b": true}}}, {"name": "StatefulPartitionedCall/GeoFeatureNet/ResUNet/sequential_2/residual_block_3/instance_normalization_11/moments/variance", "op": "Mean", "input": ["StatefulPartitionedCall/GeoFeatureNet/ResUNet/sequential_2/residual_block_3/instance_normalization_11/moments/SquaredDifference", "StatefulPartitionedCall/GeoFeatureNet/ResUNet/sequential_2/residual_block_3/instance_normalization_11/moments/variance/reduction_indices"], "attr": {"Tidx": {"type": "DT_INT32"}, "keep_dims": {"b": true}, "T": {"type": "DT_FLOAT"}}}, {"name": "StatefulPartitionedCall/GeoFeatureNet/ResUNet/sequential_2/residual_block_3/instance_normalization_13/moments/SquaredDifference", "op": "SquaredDifference", "input": ["StatefulPartitionedCall/GeoFeatureNet/ResUNet/sequential_2/residual_block_3/conv2d_14/BiasAdd", "StatefulPartitionedCall/GeoFeatureNet/ResUNet/sequential_2/residual_block_3/instance_normalization_13/moments/mean"], "attr": {"T": {"type": "DT_FLOAT"}}}, {"name": "StatefulPartitionedCall/GeoFeatureNet/ResUNet/sequential_2/residual_block_3/instance_normalization_13/batchnorm/ArithmeticOptimizer/HoistCommonFactor_Add_add_1", "op": "Sub", "input": ["StatefulPartitionedCall/GeoFeatureNet/ResUNet/sequential_2/residual_block_3/conv2d_14/BiasAdd", "StatefulPartitionedCall/GeoFeatureNet/ResUNet/sequential_2/residual_block_3/instance_normalization_13/moments/mean"], "attr": {"T": {"type": "DT_FLOAT"}}}, {"name": "StatefulPartitionedCall/GeoFeatureNet/ResUNet/sequential_2/residual_block_3/instance_normalization_11/batchnorm/add", "op": "AddV2", "input": ["StatefulPartitionedCall/GeoFeatureNet/ResUNet/sequential_2/residual_block_3/instance_normalization_11/moments/variance", "StatefulPartitionedCall/GeoFeatureNet/ResUNet/sequential_2/residual_block_3/instance_normalization_11/batchnorm/add/y"], "attr": {"T": {"type": "DT_FLOAT"}}}, {"name": "StatefulPartitionedCall/GeoFeatureNet/ResUNet/sequential_2/residual_block_3/instance_normalization_13/moments/variance", "op": "Mean", "input": ["StatefulPartitionedCall/GeoFeatureNet/ResUNet/sequential_2/residual_block_3/instance_normalization_13/moments/SquaredDifference", "StatefulPartitionedCall/GeoFeatureNet/ResUNet/sequential_2/residual_block_3/instance_normalization_13/moments/variance/reduction_indices"], "attr": {"Tidx": {"type": "DT_INT32"…
0/instance_normalization_63/batchnorm/add/y", "shape": [], "dtype": "float32"}, {"name": "StatefulPartitionedCall/GeoFeatureNet/ResUNet/sequential_11/residual_block_20/instance_normalization_62/moments/variance/reduction_indices", "shape": [2], "dtype": "int32"}, {"name": "StatefulPartitionedCall/GeoFeatureNet/ResUNet/sequential_11/residual_block_20/instance_normalization_62/batchnorm/add/y", "shape": [], "dtype": "float32"}, {"name": "StatefulPartitionedCall/GeoFeatureNet/ResUNet/sequential_11/residual_block_20/instance_normalization_62/moments/mean/reduction_indices", "shape": [2], "dtype": "int32"}, {"name": "unknown_129", "shape": [3, 3, 128, 64], "dtype": "float32"}, {"name": "unknown_130", "shape": [64], "dtype": "float32"}, {"name": "StatefulPartitionedCall/GeoFeatureNet/ResUNet/sequential_11/residual_block_20/instance_normalization_63/moments/mean/reduction_indices", "shape": [2], "dtype": "int32"}, {"name": "unknown_131", "shape": [3, 3, 64, 64], "dtype": "float32"}, {"name": "unknown_132", "shape": [64], "dtype": "float32"}, {"name": "StatefulPartitionedCall/GeoFeatureNet/ResUNet/sequential_10/residual_block_19/instance_normalization_60/moments/variance/reduction_indices", "shape": [2], "dtype": "int32"}, {"name": "StatefulPartitionedCall/GeoFeatureNet/ResUNet/sequential_10/residual_block_19/instance_normalization_60/batchnorm/add/y", "shape": [], "dtype": "float32"}, {"name": "StatefulPartitionedCall/GeoFeatureNet/ResUNet/sequential_10/residual_block_19/instance_normalization_59/moments/variance/reduction_indices", "shape": [2], "dtype": "int32"}, {"name": "StatefulPartitionedCall/GeoFeatureNet/ResUNet/sequential_10/residual_block_19/instance_normalization_59/batchnorm/add/y", "shape": [], "dtype": "float32"}, {"name": "StatefulPartitionedCall/GeoFeatureNet/ResUNet/sequential_10/residual_block_19/instance_normalization_59/moments/mean/reduction_indices", "shape": [2], "dtype": "int32"}, {"name": "unknown_123", "shape": [3, 3, 96, 96], "dtype": "float32"}, {"name": "unknown_124", "shape": [96], "dtype": "float32"}, {"name": "StatefulPartitionedCall/GeoFeatureNet/ResUNet/sequential_10/residual_block_19/instance_normalization_60/moments/mean/reduction_indices", "shape": [2], "dtype": "int32"}, {"name": "unknown_125", "shape": [3, 3, 96, 96], "dtype": "float32"}, {"name": "unknown_126", "shape": [96], "dtype": "float32"}, {"name": "StatefulPartitionedCall/GeoFeatureNet/ResUNet/sequential_10/residual_block_18/instance_normalization_57/moments/variance/reduction_indices", "shape": [2], "dtype": "int32"}, {"name": "StatefulPartitionedCall/GeoFeatureNet/ResUNet/sequential_10/residual_block_18/instance_normalization_57/batchnorm/add/y", "shape": [], "dtype": "float32"}, {"name": "StatefulPartitionedCall/GeoFeatureNet/ResUNet/sequential_10/residual_block_18/instance_normalization_56/moments/variance/reduction_indices", "shape": [2], "dtype": "int32"}, {"name": "StatefulPartitionedCall/GeoFeatureNet/ResUNet/sequential_10/residual_block_18/instance_normalization_56/batchnorm/add/y", "shape": [], "dtype": "float32"}, {"name": "StatefulPartitionedCall/GeoFeatureNet/ResUNet/sequential_10/residual_block_18/instance_normalization_56/moments/mean/reduction_indices", "shape": [2], "dtype": "int32"}, {"name": "unknown_117", "shape": [3, 3, 192, 96], "dtype": "float32"}, {"name": "unknown_118", "shape": [96], "dtype": "float32"}, {"name": "StatefulPartitionedCall/GeoFeatureNet/ResUNet/sequential_10/residual_block_18/instance_normalization_57/moments/mean/reduction_indices", "shape": [2], "dtype": "int32"}, {"name": "unknown_119", "shape": [3, 3, 96, 96], "dtype": "float32"}, {"name": "unknown_120", "shape": [96], "dtype": "float32"}, {"name": "StatefulPartitionedCall/GeoFeatureNet/ResUNet/sequential_9/residual_block_17/instance_normalization_54/moments/variance/reduction_indices", "shape": [2], "dtype": "int32"}, {"name": "StatefulPartitionedCall/GeoFeatureNet/ResUNet/sequential_9/residual_block_17/instance_normalization_54/batchnorm/add/y", "shape": [], "dtype": "float32"}, {"name": "StatefulPartitionedCall/GeoFeatureNet/ResUNet/sequential_9/residual_block_17/instance_normalization_53/moments/variance/reduction_indices", "shape": [2], "dtype": "int32"}, {"name": "StatefulPartitionedCall/GeoFeatureNet/ResUNet/sequential_9/residual_block_17/instance_normalization_53/batchnorm/add/y", "shape": [], "dtype": "float32"}, {"name": "StatefulPartitionedCall/GeoFeatureNet/ResUNet/sequential_9/residual_block_17/instance_normalization_53/moments/mean/reduction_indices", "shape": [2], "dtype": "int32"}, {"name": "unknown_111", "shape": [3, 3, 128, 128], "dtype": "float32"}, {"name": "unknown_112", "shape": [128], "dtype": "float32"}, {"name": "StatefulPartitionedCall/GeoFeatureNet/ResUNet/sequential_9/residual_block_17/instance_normalization_54/moments/mean/reduction_indices", "shape": [2], "dtype": "int32"}, {"name": "unknown_113", "shape": [3, 3, 128, 128], "dtype": "float32"}, {"name": "unknown_114", "shape": [128], "dtype": "float32"}, {"name": "StatefulPartitionedCall/GeoFeatureNet/ResUNet/sequential_9/residual_block_16/instance_normalization_51/moments/variance/reduction_indices", "shape": [2], "dtype": "int32"}, {"name": "StatefulPartitionedCall/GeoFeatureNet/ResUNet/sequential_9/residual_block_16/instance_normalization_51/batchnorm/add/y", "shape": [], "dtype": "float32"}, {"name": "StatefulPartitionedCall/GeoFeatureNet/ResUNet/sequential_9/residual_block_16/instance_normalization_50/moments/variance/reduction_indices", "shape": [2], "dtype": "int32"}, {"name": "StatefulPartitionedCall/GeoFeatureNet/ResUNet/sequential_9/residual_block_16/instance_normalization_50/batchnorm/add/y", "shape": [], "dtype": "float32"}, {"name": "StatefulPartitionedCall/GeoFeatureNet/ResUNet/sequential_9/residual_block_16/instance_normalization_50/moments/mean/reduction_indices", "shape": [2], "dtype": "int32"}, {"name": "unknown_105", "shape": [3, 3, 224, 128], "dtype": "float32"}, {"name": "unknown_106", "shape": [128], "dtype": "float32"}, {"name": "StatefulPartitionedCall/GeoFeatureNet/ResUNet/sequential_9/residual_block_16/instance_normalization_51/moments/mean/reduction_indices", "shape": [2], "dtype": "int32"}, {"name": "unknown_107", "shape": [3, 3, 128, 128], "dtype": "float32"}, {"name": "unknown_108", "shape": [128], "dtype": "float32"}, {"name": "StatefulPartitionedCall/GeoFeatureNet/ResUNet/sequential_8/residual_block_15/instance_normalization_48/moments/variance/reduction_indices", "shape": [2], "dtype": "int32"}, {"name": "StatefulPartitionedCall/GeoFeatureNet/ResUNet/sequential_8/residual_block_15/instance_normalization_48/batchnorm/add/y", "shape": [], "dtype": "float32"}, {"name": "StatefulPartitionedCall/GeoFeatureNet/ResUNet/sequential_8/residual_block_15/instance_normalization_47/moments/variance/reduction_indices", "shape": [2], "dtype": "int32"}, {"name": "StatefulPartitionedCall/GeoFeatureNet/ResUNet/sequential_8/residual_block_15/instance_normalization_47/batchnorm/add/y", "shape": [], "dtype": "float32"}, {"name": "StatefulPartitionedCall/GeoFeatureNet/ResUNet/sequential_8/residual_block_15/instance_normalization_47/moments/mean/reduction_indices", "shape": [2], "dtype": "int32"}, {"name": "unknown_99", "shape": [3, 3, 128, 128], "dtype": "float32"}, {"name": "unknown_100", "shape": [128], "dtype": "float32"}, {"name": "StatefulPartitionedCall/GeoFeatureNet/ResUNet/sequential_8/residual_block_15/instance_normalization_48/moments/mean/reduction_indices", "shape": [2], "dtype": "int32"}, {"name": "unknown_101", "shape": [3, 3, 128, 128], "dtype": "float32"}, {"name": "unknown_102", "shape": [128], "dtype": "float32"}, {"name": "StatefulPartitionedCall/GeoFeatureNet/ResUNet/sequential_8/residual_block_14/instance_normalization_45/moments/variance/reduction_indices", "shape": [2], "dtype": "int32"}, {"name": "StatefulPartitionedCall/GeoFeatureNet/ResUNet/sequential_8/residual_block_14/instance_normalization_45/batchnorm/add/y", "shape": [], "dtype": "float32"}, {"name": "StatefulPartitionedCall/GeoFeatureNet/ResUNet/sequential_8/residual_block_14/instance_normalization_44/moments/variance/reduction_indices", "shape": [2], "dtype": "int32"}, {"name": "StatefulPartitionedCall/GeoFeatureNet/ResUNet/sequential_8/residual_block_14/instance_normalization_44/batchnorm/add/y", "shape": [], "dtype": "float32"}, {"name": "StatefulPartitionedCall/GeoFeatureNet/ResUNet/sequential_8/residual_block_14/instance_normalization_44/moments/mean/reduction_indices", "shape": [2], "dtype": "int32"}, {"name": "unknown_93", "shape": [3, 3, 324, 128], "dtype": "float32"}, {"name": "unknown_94", "shape": [128], "dtype": "float32"}, {"name": "StatefulPartitionedCall/GeoFeatureNet/ResUNet/sequential_8/residual_block_14/instance_normalization_45/moments/mean/reduction_indices", "shape": [2], "dtype": "int32"}, {"name": "unknown_95", "shape": [3, 3, 128, 128], "dtype": "float32"}, {"name": "unknown_96", "shape": [128], "dtype": "float32"}, {"name": "StatefulPartitionedCall/GeoFeatureNet/ResUNet/sequential_7/residual_block_13/instance_normalization_42/moments/variance/reduction_indices", "shape": [2], "dtype": "int32"}, {"name": "StatefulPartitionedCall/GeoFeatureNet/ResUNet/sequential_7/residual_block_13/instance_normalization_42/batchnorm/add/y", "shape": [], "dtype": "float32"}, {"name": "StatefulPartitionedCall/GeoFeatureNet/ResUNet/sequential_7/residual_block_13/instance_normalization_41/moments/variance/reduction_indices", "shape": [2], "dtype": "int32"}, {"name": "StatefulPartitionedCall/GeoFeatureNet/ResUNet/sequential_7/residual_block_13/instance_normalization_41/batchnorm/add/y", "shape": [], "dtype": "float32"}, {"name": "StatefulPartitionedCall/GeoFeatureNet/ResUNet/sequential_7/residual_block_13/instance_normalization_41/moments/mean/reduction_indices", "shape": [2], "dtype": "int32"}, {"name": "unknown_87", "shape": [3, 3, 196, 196], "dtype": "float32"}, {"name": "unknown_88", "shape": [196], "dtype": "float32"}, {"name": "StatefulPartitionedCall/GeoFeatureNet/ResUNet/sequential_7/residual_block_13/instance_normalization_42/moments/mean/reduction_indices", "shape": [2], "dtype": "int32"}, {"name": "unknown_89", "shape": [3, 3, 196, 196], "dtype": "float32"}, {"name": "unknown_90", "shape": [196], "dtype": "float32"}, {"name": "StatefulPartitionedCall/GeoFeatureNet/ResUNet/sequential_7/residual_block_12/instance_normalization_39/moments/variance/reduction_indices", "shape": [2], "dtype": "int32"}, {"name": "StatefulPartitionedCall/GeoFeatureNet/ResUNet/sequential_7/residual_block_12/instance_normalization_39/batchnorm/add/y", "shape": [], "dtype": "float32"}, {"name": "StatefulPartitionedCall/GeoFeatureNet/ResUNet/sequential_7/residual_block_12/instance_normalization_38/moments/variance/reduction_indices", "shape": [2], "dtype": "int32"}, {"name": "StatefulPartitionedCall/GeoFeatureNet/ResUNet/sequential_7/residual_block_12/instance_normalization_38/batchnorm/add/y", "shape": [], "dtype": "float32"}, {"name": "StatefulPartitionedCall/GeoFeatureNet/ResUNet/sequential_7/residual_block_12/instance_normalization_38/moments/mean/reduction_indices", "shape": [2], "dtype": "int32"}, {"name": "unknown_81", "shape": [3, 3, 324, 196], "dtype": "float32"}, {"name": "unknown_82", "shape": [196], "dtype": "float32"}, {"name": "StatefulPartitionedCall/GeoFeatureNet/ResUNet/sequential_7/residual_block_12/instance_normalization_39/moments/mean/reduction_indices", "shape": [2], "dtype": "int32"}, {"name": "unknown_83", "shape": [3, 3, 196, 196], "dtype": "float32"}, {"name": "unknown_84", "shape": [196], "dtype": "float32"}, {"name": "StatefulPartitionedCall/GeoFeatureNet/ResUNet/sequential_14/instance_normalization_75/moments/variance/reduction_indices", "shape": [2], "dtype": "int32"}, {"name": "StatefulPartitionedCall/GeoFeatureNet/ResUNet/sequential_14/instance_normalization_75/batchnorm/add/y", "shape": [], "dtype": "float32"}, {"name": "StatefulPartitionedCall/GeoFeatureNet/ResUNet/sequential_13/instance_normalization_74/moments/variance/reduction_indices", "shape": [2], "dtype": "int32"}, {"name": "StatefulPartitionedCall/GeoFeatureNet/ResUNet/sequential_13/instance_normalization_74/batchnorm/add/y", "shape": [], "dtype": "float32"}, {"name": "StatefulPartitionedCall/GeoFeatureNet/ResUNet/sequential_6/residual_block_11/instance_normalization_36/moments/variance/reduction_indices", "shape": [2], "dtype": "int32"}, {"name": "StatefulPartitionedCall/GeoFeatureNet/ResUNet/sequential_6/residual_block_11/instance_normalization_36/batchnorm/add/y", "shape": [], "dtype": "float32"}, {"name": "StatefulPartitionedCall/GeoFeatureNet/ResUNet/sequential_6/residual_block_11/instance_normalization_35/moments/variance/reduction_indices", "shape": [2], "dtype": "int32"}, {"name": "StatefulPartitionedCall/GeoFeatureNet/ResUNet/sequential_6/residual_block_11/instance_normalization_35/batchnorm/add/y", "shape": [], "dtype": "float32"}, {"name": "StatefulPartitionedCall/GeoFeatureNet/ResUNet/sequential_6/residual_block_11/instance_normalization_35/moments/mean/reduction_indices", "shape": [2], "dtype": "int32"}, {"name": "unknown_71", "shape": [3, 3, 196, 196], "dtype": "float32"}, {"name": "unknown_72", "shape": [196], "dtype": "float32"}, {"name": "StatefulPartitionedCall/GeoFeatureNet/ResUNet/sequential_6/residual_block_11/instance_normalization_36/moments/mean/reduction_indices", "shape": [2], "dtype": "int32"}, {"name": "unknown_73", "shape": [3, 3, 196, 196], "dtype": "float32"}, {"name": "unknown_74", "shape": [196], "dtype": "float32"}, {"name": "StatefulPartitionedCall/GeoFeatureNet/ResUNet/sequential_6/residual_block_11/instance_normalization_37/moments/variance/reduction_indices", "shape": [2], "dtype": "int32"}, {"name": "StatefulPartitionedCall/GeoFeatureNet/ResUNet/sequential_6/residual_block_11/instance_normalization_37/batchnorm/add/y", "shape": [], "dtype": "float32"}, {"name": "StatefulPartitionedCall/GeoFeatureNet/ResUNet/sequential_6/residual_block_10/instance_normalization_33/moments/variance/reduction_indices", "shape": [2], "dtype": "int32"}, {"name": "StatefulPartitionedCall/GeoFeatureNet/ResUNet/sequential_6/residual_block_10/instance_normalization_33/batchnorm/add/y", "shape": [], "dtype": "float32"}, {"name": "StatefulPartitionedCall/GeoFeatureNet/ResUNet/sequential_6/residual_block_10/instance_normalization_32/moments/variance/reduction_indices", "shape": [2], "dtype": "int32"}, {"name": "StatefulPartitionedCall/GeoFeatureNet/ResUNet/sequential_6/residual_block_10/instance_normalization_32/batchnorm/add/y", "shape": [], "dtype": "float32"}, {"name": "StatefulPartitionedCall/GeoFeatureNet/ResUNet/sequential_6/residual_block_10/instance_normalization_32/moments/mean/reduction_indices", "shape": [2], "dtype": "int32"}, {"name": "unknown_65", "shape": [3, 3, 128, 196], "dtype": "float32"}, {"name": "unknown_66", "shape": [196], "dtype": "float32"}, {"name": "StatefulPartitionedCall/GeoFeatureNet/ResUNet/sequential_6/residual_block_10/instance_normalization_33/moments/mean/reduction_indices", "shape": [2], "dtype": "int32"}, {"name": "unknown_67", "shape": [3, 3, 196, 196], "dtype": "float32"}, {"name": "unknown_68", "shape": [196], "dtype": "float32"}, {"name": "unknown_69", "shape": [1, 1, 128, 196], "dtype": "float32"}, {"name": "unknown_70", "shape": [196], "dtype": "float32"}, {"name": "StatefulPartitionedCall/GeoFeatureNet/ResUNet/sequential_6/residual_block_10/instance_normalization_34/moments/mean/reduction_indices", "shape": [2], "dtype": "int32"}, {"name": "StatefulPartitionedCall/GeoFeatureNet/ResUNet/sequential_6/residual_block_10/instance_normalization_34/moments/variance/reduction_indices", "shape": [2], "dtype": "int32"}, {"name": "StatefulPartitionedCall/GeoFeatureNet/ResUNet/sequential_6/residual_block_10/instance_normalization_34/batchnorm/add/y", "shape": [], "dtype": "float32"}, {"name": "unknown_75", "shape": [1, 1, 196, 196], "dtype": "float32"}, {"name": "unknown_76", "shape": [196], "dtype": "float32"}, {"name": "StatefulPartitionedCall/GeoFeatureNet/ResUNet/sequential_6/residual_block_11/instance_normalization_37/moments/mean/reduction_indices", "shape": [2], "dtype": "int32"}, {"name": "StatefulPartitionedCall/GeoFeatureNet/ResUNet/sequential_13/instance_normalization_74/moments/mean/reduction_indices", "shape": [2], "dtype": "int32"}, {"name": "unknown_77", "shape": [3, 3, 196, 196], "dtype": "float32"}, {"name": "unknown_78", "shape": [196], "dtype": "float32"}, {"name": "StatefulPartitionedCall/GeoFeatureNet/ResUNet/sequential_14/instance_normalization_75/moments/mean/reduction_indices", "shape": [2], "dtype": "int32"}, {"name": "unknown_79", "shape": [3, 3, 196, 196], "dtype": "float32"}, {"name": "unknown_80", "shape": [196], "dtype": "float32"}, {"name": "StatefulPartitionedCall/GeoFeatureNet/ResUNet/upsample/strided_slice/stack", "shape": [1], "dtype": "int32"}, {"name": "StatefulPartitionedCall/GeoFeatureNet/ResUNet/upsample/strided_slice/stack_1", "shape": [1], "dtype": "int32"}, {"name": "StatefulPartitionedCall/GeoFeatureNet/ResUNet/upsample/strided_slice/stack_2", "shape": [1], "dtype": "int32"}, {"name": "StatefulPartitionedCall/GeoFeatureNet/ResUNet/upsample/Const", "shape": [2], "dtype": "int32"}, {"name": "StatefulPartitionedCall/GeoFeatureNet/ResUNet/sequential_5/residual_block_9/instance_normalization_30/moments/variance/reduction_indices", "shape": [2], "dtype": "int32"}, {"name": "StatefulPartitionedCall/GeoFeatureNet/ResUNet/sequential_5/residual_block_9/instance_normalization_30/batchnorm/add/y", "shape": [], "dtype": "float32"}, {"name": "StatefulPartitionedCall/GeoFeatureNet/ResUNet/sequential_5/residual_block_9/instance_normalization_29/moments/variance/reduction_indices", "shape": [2], "dtype": "int32"}, {"name": "StatefulPartitionedCall/GeoFeatureNet/ResUNet/sequential_5/residual_block_9/instance_normalization_29/batchnorm/add/y", "shape": [], "dtype": "float32"}, {"name": "StatefulPartitionedCall/GeoFeatureNet/ResUNet/sequential_5/residual_block_9/instance_normalization_29/moments/mean/reduction_indices", "shape": [2], "dtype": "int32"}, {"name": "unknown_59", "shape": [3, 3, 128, 128], "dtype": "float32"}, {"name": "unknown_60", "shape": [128], "dtype": "float32"}, {"name": "StatefulPartitionedCall/GeoFeatureNet/ResUNet/sequential_5/residual_block_9/instance_normalization_30/moments/mean/reduction_indices", "shape": [2], "dtype": "int32"}, {"name": "unknown_61", "shape": [3, 3, 128, 128], "dtype": "float32"}, {"name": "unknown_62", "shape": [128], "dtype": "float32"}, {"name": "StatefulPartitionedCall/GeoFeatureNet/ResUNet/sequential_5/residual_block_9/instance_normalization_31/moments/variance/reduction_indices", "shape": [2], "dtype": "int32"}, {"name": "StatefulPartitionedCall/GeoFeatureNet/ResUNet/sequential_5/residual_block_9/instance_normalization_31/batchnorm/add/y", "shape": [], "dtype": "float32"}, {"name": "StatefulPartitionedCall/GeoFeatureNet/ResUNet/sequential_5/residual_block_8/instance_normalization_27/moments/variance/reduction_indices", "shape": [2], "dtype": "int32"}, {"name": "StatefulPartitionedCall/GeoFeatureNet/ResUNet/sequential_5/residual_block_8/instance_normalization_27/batchnorm/add/y", "shape": [], "dtype": "float32"}, {"name": "StatefulPartitionedCall/GeoFeatureNet/ResUNet/sequential_5/residual_block_8/instance_normalization_26/moments/variance/reduction_indices", "shape": [2], "dtype": "int32"}, {"name": "StatefulPartitionedCall/GeoFeatureNet/ResUNet/sequential_5/residual_block_8/instance_normalization_26/batchnorm/add/y", "shape": [], "dtype": "float32"}, {"name": "StatefulPartitionedCall/GeoFeatureNet/ResUNet/sequential_5/residual_block_8/instance_normalization_26/moments/mean/reduction_indices", "shape": [2], "dtype": "int32"}, {"name": "unknown_53", "shape": [3, 3, 128, 128], "dtype": "float32"}, {"name": "unknown_54", "shape": [128], "dtype": "float32"}, {"name": "StatefulPartitionedCall/GeoFeatureNet/ResUNet/sequential_5/residual_block_8/instance_normalization_27/moments/mean/reduction_indices", "shape": [2], "dtype": "int32"}, {"name": "unknown_55", "shape": [3, 3, 128, 128], "dtype": "float32"}, {"name": "unknown_56", "shape": [128], "dtype": "float32"}, {"name": "unknown_57", "shape": [1, 1, 128, 128], "dtype": "float32"}, {"name": "unknown_58", "shape": [128], "dtype": "float32"}, {"name": "StatefulPartitionedCall/GeoFeatureNet/ResUNet/sequential_5/residual_block_8/instance_normalization_28/moments/mean/reduction_indices", "shape": [2], "dtype": "int32"}, {"name": "StatefulPartitionedCall/GeoFeatureNet/ResUNet/sequential_5/residual_block_8/instance_normalization_28/moments/variance/reduction_indices", "shape": [2], "dtype": "int32"}, {"name": "StatefulPartitionedCall/GeoFeatureNet/ResUNet/sequential_5/residual_block_8/instance_normalization_28/batchnorm/add/y", "shape": [], "dtype": "float32"}, {"name": "unknown_63", "shape": [1, 1, 128, 128], "dtype": "float32"}, {"name": "unknown_64", "shape": [128], "dtype": "float32"}, {"name": "StatefulPartitionedCall/GeoFeatureNet/ResUNet/sequential_5/residual_block_9/instance_normalization_31/moments/mean/reduction_indices", "shape": [2], "dtype": "int32"}, {"name": "StatefulPartitionedCall/GeoFeatureNet/ResUNet/concatenate/concat/axis", "shape": [], "dtype": "int32"}, {"name": "unknown_85", "shape": [1, 1, 324, 196], "dtype": "float32"}, {"name": "unknown_86", "shape": [196], "dtype": "float32"}, {"name": "StatefulPartitionedCall/GeoFeatureNet/ResUNet/sequential_7/residual_block_12/instance_normalization_40/moments/mean/reduction_indices", "shape": [2], "dtype": "int32"}, {"name": "StatefulPartitionedCall/GeoFeatureNet/ResUNet/sequential_7/residual_block_12/instance_normalization_40/moments/variance/reduction_indices", "shape": [2], "dtype": "int32"}, {"name": "StatefulPartitionedCall/GeoFeatureNet/ResUNet/sequential_7/residual_block_12/instance_normalization_40/batchnorm/add/y", "shape": [], "dtype": "float32"}, {"name": "unknown_91", "shape": [1, 1, 196, 196], "dtype": "float32"}, {"name": "unknown_92", "shape": [196], "dtype": "float32"}, {"name": "StatefulPartitionedCall/GeoFeatureNet/ResUNet/sequential_7/residual_block_13/instance_normalization_43/moments/mean/reduction_indices", "shape": [2], "dtype": "int32"}, {"name": "StatefulPartitionedCall/GeoFeatureNet/ResUNet/sequential_7/residual_block_13/instance_normalization_43/moments/variance/reduction_indices", "shape": [2], "dtype": "int32"}, {"name": "StatefulPartitionedCall/GeoFeatureNet/ResUNet/sequential_7/residual_block_13/instance_normalization_43/batchnorm/add/y", "shape": [], "dtype": "float32"}, {"name": "StatefulPartitionedCall/GeoFeatureNet/ResUNet/upsample/strided_slice_1/stack", "shape": [1], "dtype": "int32"}, {"name": "StatefulPartitionedCall/GeoFeatureNet/ResUNet/upsample/strided_slice_1/stack_1", "shape": [1], "dtype": "int32"}, {"name": "StatefulPartitionedCall/GeoFeatureNet/ResUNet/upsample/strided_slice_1/stack_2", "shape": [1], "dtype": "int32"}, {"name": "StatefulPartitionedCall/GeoFeatureNet/ResUNet/upsample/Const_1", "shape": [2], "dtype": "int32"}, {"name": "StatefulPartitionedCall/GeoFeatureNet/ResUNet/sequential_4/residual_block_7/instance_normalization_24/moments/variance/reduction_indices", "shape": [2], "dtype": "int32"}, {"name": "StatefulPartitionedCall/GeoFeatureNet/ResUNet/sequential_4/residual_block_7/instance_normalization_24/batchnorm/add/y", "shape": [], "dtype": "float32"}, {"name": "StatefulPartitionedCall/GeoFeatureNet/ResUNet/sequential_4/residual_block_7/instance_normalization_23/moments/variance/reduction_indices", "shape": [2], "dtype": "int32"}, {"name": "StatefulPartitionedCall/GeoFeatureNet/ResUNet/sequential_4/residual_block_7/instance_normalization_23/batchnorm/add/y", "shape": [], "dtype": "float32"}, {"name": "StatefulPartitionedCall/GeoFeatureNet/ResUNet/sequential_4/residual_block_7/instance_normalization_23/moments/mean/reduction_indices", "shape": [2], "dtype": "int32"}, {"name": "unknown_47", "shape": [3, 3, 128, 128], "dtype": "float32"}, {"name": "unknown_48", "shape": [128], "dtype": "float32"}, {"name": "StatefulPartitionedCall/GeoFeatureNet/ResUNet/sequential_4/residual_block_7/instance_normalization_24/moments/mean/reduction_indices", "shape": [2], "dtype": "int32"}, {"name": "unknown_49", "shape": [3, 3, 128, 128], "dtype": "float32"}, {"name": "unknown_50", "shape": [128], "dtype": "float32"}, {"name": "StatefulPartitionedCall/GeoFeatureNet/ResUNet/sequential_4/residual_block_7/instance_normalization_25/moments/variance/reduction_indices", "shape": [2], "dtype": "int32"}, {"name": "StatefulPartitionedCall/GeoFeatureNet/ResUNet/sequential_4/residual_block_7/instance_normalization_25/batchnorm/add/y", "shape": [], "dtype": "float32"}, {"name": "StatefulPartitionedCall/GeoFeatureNet/ResUNet/sequential_4/residual_block_6/instance_normalization_21/moments/variance/reduction_indices", "shape": [2], "dtype": "int32"}, {"name": "StatefulPartitionedCall/GeoFeatureNet/ResUNet/sequential_4/residual_block_6/instance_normalization_21/batchnorm/add/y", "shape": [], "dtype": "float32"}, {"name": "StatefulPartitionedCall/GeoFeatureNet/ResUNet/sequential_4/residual_block_6/instance_normalization_20/moments/variance/reduction_indices", "shape": [2], "dtype": "int32"}, {"name": "StatefulPartitionedCall/GeoFeatureNet/ResUNet/sequential_4/residual_block_6/instance_normalization_20/batchnorm/add/y", "shape": [], "dtype": "float32"}, {"name": "StatefulPartitionedCall/GeoFeatureNet/ResUNet/sequential_4/residual_block_6/instance_normalization_20/moments/mean/reduction_indices", "shape": [2], "dtype": "int32"}, {"name": "unknown_41", "shape": [3, 3, 96, 128], "dtype": "float32"}, {"name": "unknown_42", "shape": [128], "dtype": "float32"}, {"name": "StatefulPartitionedCall/GeoFeatureNet/ResUNet/sequential_4/residual_block_6/instance_normalization_21/moments/mean/reduction_indices", "shape": [2], "dtype": "int32"}, {"name": "unknown_43", "shape": [3, 3, 128, 128], "dtype": "float32"}, {"name": "unknown_44", "shape": [128], "dtype": "float32"}, {"name": "unknown_45", "shape": [1, 1, 96, 128], "dtype": "float32"}, {"name": "unknown_46", "shape": [128], "dtype": "float32"}, {"name": "StatefulPartitionedCall/GeoFeatureNet/ResUNet/sequential_4/residual_block_6/instance_normalization_22/moments/mean/reduction_indices", "shape": [2], "dtype": "int32"}, {"name": "StatefulPartitionedCall/GeoFeatureNet/ResUNet/sequential_4/residual_block_6/instance_normalization_22/moments/variance/reduction_indices", "shape": [2], "dtype": "int32"}, {"name": "StatefulPartitionedCall/GeoFeatureNet/ResUNet/sequential_4/residual_block_6/instance_normalization_22/batchnorm/add/y", "shape": [], "dtype": "float32"}, {"name": "unknown_51", "shape": [1, 1, 128, 128], "dtype": "float32"}, {"name": "unknown_52", "shape": [128], "dtype": "float32"}, {"name": "StatefulPartitionedCall/GeoFeatureNet/ResUNet/sequential_4/residual_block_7/instance_normalization_25/moments/mean/reduction_indices", "shape": [2], "dtype": "int32"}, {"name": "StatefulPartitionedCall/GeoFeatureNet/ResUNet/concatenate/concat_1/axis", "shape": [], "dtype": "int32"}, {"name": "unknown_97", "shape": [1, 1, 324, 128], "dtype": "float32"}, {"name": "unknown_98", "shape": [128], "dtype": "float32"}, {"name": "StatefulPartitionedCall/GeoFeatureNet/ResUNet/sequential_8/residual_block_14/instance_normalization_46/moments/mean/reduction_indices", "shape": [2], "dtype": "int32"}, {"name": "StatefulPartitionedCall/GeoFeatureNet/ResUNet/sequential_8/residual_block_14/instance_normalization_46/moments/variance/reduction_indices", "shape": [2], "dtype": "int32"}, {"name": "StatefulPartitionedCall/GeoFeatureNet/ResUNet/sequential_8/residual_block_14/instance_normalization_46/batchnorm/add/y", "shape": [], "dtype": "float32"}, {"name": "unknown_103", "shape": [1, 1, 128, 128], "dtype": "float32"}, {"name": "unknown_104", "shape": [128], "dtype": "float32"}, {"name": "StatefulPartitionedCall/GeoFeatureNet/ResUNet/sequential_8/residual_block_15/instance_normalization_49/moments/mean/reduction_indices", "shape": [2], "dtype": "int32"}, {"name": "StatefulPartitionedCall/GeoFeatureNet/ResUNet/sequential_8/residual_block_15/instance_normalization_49/moments/variance/reduction_indices", "shape": [2], "dtype": "int32"}, {"name": "StatefulPartitionedCall/GeoFeatureNet/ResUNet/sequential_8/residual_block_15/instance_normalization_49/batchnorm/add/y", "shape": [], "dtype": "float32"}, {"name": "StatefulPartitionedCall/GeoFeatureNet/ResUNet/upsample/strided_slice_2/stack", "shape": [1], "dtype": "int32"}, {"name": "StatefulPartitionedCall/GeoFeatureNet/ResUNet/upsample/strided_slice_2/stack_1", "shape": [1], "dtype": "int32"}, {"name": "StatefulPartitionedCall/GeoFeatureNet/ResUNet/upsample/strided_slice_2/stack_2", "shape": [1], "dtype": "int32"}, {"name": "StatefulPartitionedCall/GeoFeatureNet/ResUNet/upsample/Const_2", "shape": [2], "dtype": "int32"}, {"name": "StatefulPartitionedCall/GeoFeatureNet/ResUNet/sequential_3/residual_block_5/instance_normalization_18/moments/variance/reduction_indices", "shape": [2], "dtype": "int32"}, {"name": "StatefulPartitionedCall/GeoFeatureNet/ResUNet/sequential_3/residual_block_5/instance_normalization_18/batchnorm/add/y", "shape": [], "dtype": "float32"}, {"name": "StatefulPartitionedCall/GeoFeatureNet/ResUNet/sequential_3/residual_block_5/instance_normalization_17/moments/variance/reduction_indices", "shape": [2], "dtype": "int32"}, {"name": "StatefulPartitionedCall/GeoFeatureNet/ResUNet/sequential_3/residual_block_5/instance_normalization_17/batchnorm/add/y", "shape": [], "dtype": "float32"}, {"name": "StatefulPartitionedCall/GeoFeatureNet/ResUNet/sequential_3/residual_block_5/instance_normalization_17/moments/mean/reduction_indices", "shape": [2], "dtype": "int32"}, {"name": "unknown_35", "shape": [3, 3, 96, 96], "dtype": "float32"}, {"name": "unknown_36", "shape": [96], "dtype": "float32"}, {"name": "StatefulPartitionedCall/GeoFeatureNet/ResUNet/sequential_3/residual_block_5/instance_normalization_18/moments/mean/reduction_indices", "shape": [2], "dtype": "int32"}, {"name": "unknown_37", "shape": [3, 3, 96, 96], "dtype": "float32"}, {"name": "unknown_38", "shape": [96], "dtype": "float32"}, {"name": "StatefulPartitionedCall/GeoFeatureNet/ResUNet/sequential_3/residual_block_5/instance_normalization_19/moments/variance/reduction_indices", "shape": [2], "dtype": "int32"}, {"name": "StatefulPartitionedCall/GeoFeatureNet/ResUNet/sequential_3/residual_block_5/instance_normalization_19/batchnorm/add/y", "shape": [], "dtype": "float32"}, {"name": "StatefulPartitionedCall/GeoFeatureNet/ResUNet/sequential_3/residual_block_4/instance_normalization_15/moments/variance/reduction_indices", "shape": [2], "dtype": "int32"}, {"name": "StatefulPartitionedCall/GeoFeatureNet/ResUNet/sequential_3/residual_block_4/instance_normalization_15/batchnorm/add/y", "shape": [], "dtype": "float32"}, {"name": "StatefulPartitionedCall/GeoFeatureNet/ResUNet/sequential_3/residual_block_4/instance_normalization_14/moments/variance/reduction_indices", "shape": [2], "dtype": "int32"}, {"name": "StatefulPartitionedCall/GeoFeatureNet/ResUNet/sequential_3/residual_block_4/instance_normalization_14/batchnorm/add/y", "shape": [], "dtype": "float32"}, {"name": "StatefulPartitionedCall/GeoFeatureNet/ResUNet/sequential_3/residual_block_4/instance_normalization_14/moments/mean/reduction_indices", "shape": [2], "dtype": "int32"}, {"name": "unknown_29", "shape": [3, 3, 64, 96], "dtype": "float32"}, {"name": "unknown_30", "shape": [96], "dtype": "float32"}, {"name": "StatefulPartitionedCall/GeoFeatureNet/ResUNet/sequential_3/residual_block_4/instance_normalization_15/moments/mean/reduction_indices", "shape": [2], "dtype": "int32"}, {"name": "unknown_31", "shape": [3, 3, 96, 96], "dtype": "float32"}, {"name": "unknown_32", "shape": [96], "dtype": "float32"}, {"name": "unknown_33", "shape": [1, 1, 64, 96], "dtype": "float32"}, {"name": "unknown_34", "shape": [96], "dtype": "float32"}, {"name": "StatefulPartitionedCall/GeoFeatureNet/ResUNet/sequential_3/residual_block_4/instance_normalization_16/moments/mean/reduction_indices", "shape": [2], "dtype": "int32"}, {"name": "StatefulPartitionedCall/GeoFeatureNet/ResUNet/sequential_3/residual_block_4/instance_normalization_16/moments/variance/reduction_indices", "shape": [2], "dtype": "int32"}, {"name": "StatefulPartitionedCall/GeoFeatureNet/ResUNet/sequential_3/residual_block_4/instance_normalization_16/batchnorm/add/y", "shape": [], "dtype": "float32"}, {"name": "unknown_39", "shape": [1, 1, 96, 96], "dtype": "float32"}, {"name": "unknown_40", "shape": [96], "dtype": "float32"}, {"name": "StatefulPartitionedCall/GeoFeatureNet/ResUNet/sequential_3/residual_block_5/instance_normalization_19/moments/mean/reduction_indices", "shape": [2], "dtype": "int32"}, {"name": "StatefulPartitionedCall/GeoFeatureNet/ResUNet/concatenate/concat_2/axis", "shape": [], "dtype": "int32"}, {"name": "unknown_109", "shape": [1, 1, 224, 128], "dtype": "float32"}, {"name": "unknown_110", "shape": [128], "dtype": "float32"}, {"name": "StatefulPartitionedCall/GeoFeatureNet/ResUNet/sequential_9/residual_block_16/instance_normalization_52/moments/mean/reduction_indices", "shape": [2], "dtype": "int32"}, {"name": "StatefulPartitionedCall/GeoFeatureNet/ResUNet/sequential_9/residual_block_16/instance_normalization_52/moments/variance/reduction_indices", "shape": [2], "dtype": "int32"}, {"name": "StatefulPartitionedCall/GeoFeatureNet/ResUNet/sequential_9/residual_block_16/instance_normalization_52/batchnorm/add/y", "shape": [], "dtype": "float32"}, {"name": "unknown_115", "shape": [1, 1, 128, 128], "dtype": "float32"}, {"name": "unknown_116", "shape": [128], "dtype": "float32"}, {"name": "StatefulPartitionedCall/GeoFeatureNet/ResUNet/sequential_9/residual_block_17/instance_normalization_55/moments/mean/reduction_indices", "shape": [2], "dtype": "int32"}, {"name": "StatefulPartitionedCall/GeoFeatureNet/ResUNet/sequential_9/residual_block_17/instance_normalization_55/moments/variance/reduction_indices", "shape": [2], "dtype": "int32"}, {"name": "StatefulPartitionedCall/GeoFeatureNet/ResUNet/sequential_9/residual_block_17/instance_normalization_55/batchnorm/add/y", "shape": [], "dtype": "float32"}, {"name": "StatefulPartitionedCall/GeoFeatureNet/ResUNet/upsample/strided_slice_3/stack", "shape": [1], "dtype": "int32"}, {"name": "StatefulPartitionedCall/GeoFeatureNet/ResUNet/upsample/strided_slice_3/stack_1", "shape": [1], "dtype": "int32"}, {"name": "StatefulPartitionedCall/GeoFeatureNet/ResUNet/upsample/strided_slice_3/stack_2", "shape": [1], "dtype": "int32"}, {"name": "StatefulPartitionedCall/GeoFeatureNet/ResUNet/upsample/Const_3", "shape": [2], "dtype": "int32"}, {"name": "StatefulPartitionedCall/GeoFeatureNet/ResUNet/sequential_2/residual_block_3/instance_normalization_12/moments/variance/reduction_indices", "shape": [2], "dtype": "int32"}, {"name": "StatefulPartitionedCall/GeoFeatureNet/ResUNet/sequential_2/residual_block_3/instance_normalization_12/batchnorm/add/y", "shape": [], "dtype": "float32"}, {"name": "StatefulPartitionedCall/GeoFeatureNet/ResUNet/sequential_2/residual_block_3/instance_normalization_11/moments/variance/reduction_indices", "shape": [2], "dtype": "int32"}, {"name": "StatefulPartitionedCall/GeoFeatureNet/ResUNet/sequential_2/residual_block_3/instance_normalization_11/batchnorm/add/y", "shape": [], "dtype": "float32"}, {"name": "StatefulPartitionedCall/GeoFeatureNet/ResUNet/sequential_2/residual_block_3/instance_normalization_11/moments/mean/reduction_indices", "shape": [2], "dtype": "int32"}, {"name": "unknown_23", "shape": [3, 3, 64, 64], "dtype": "float32"}, {"name": "unknown_24", "shape": [64], "dtype": "float32"}, {"name": "StatefulPartitionedCall/GeoFeatureNet/ResUNet/sequential_2/residual_block_3/instance_normalization_12/moments/mean/reduction_indices", "shape": [2], "dtype": "int32"}, {"name": "unknown_25", "shape": [3, 3, 64, 64], "dtype": "float32"}, {"name": "unknown_26", "shape": [64], "dtype": "float32"}, {"name": "StatefulPartitionedCall/GeoFeatureNet/ResUNet/sequential_2/residual_block_3/instance_normalization_13/moments/variance/reduction_indices", "shape": [2], "dtype": "int32"}, {"name": "StatefulPartitionedCall/GeoFeatureNet/ResUNet/sequential_2/residual_block_3/instance_normalization_13/batchnorm/add/y", "shape": [], "dtype": "float32"}, {"name": "StatefulPartitionedCall/GeoFeatureNet/ResUNet/sequential_2/residual_block_2/instance_normalization_9/moments/variance/reduction_indices", "shape": [2], "dtype": "int32"}, {"name": "StatefulPartitionedCall/GeoFeatureNet/ResUNet/sequential_2/residual_block_2/instance_normalization_9/batchnorm/add/y", "shape": [], "dtype": "float32"}, {"name": "StatefulPartitionedCall/GeoFeatureNet/ResUNet/sequential_2/residual_block_2/instance_normalization_8/moments/variance/reduction_indices", "shape": [2], "dtype": "int32"}, {"name": "StatefulPartitionedCall/GeoFeatureNet/ResUNet/sequential_2/residual_block_2/instance_normalization_8/batchnorm/add/y", "shape": [], "dtype": "float32"}, {"name": "StatefulPartitionedCall/GeoFeatureNet/ResUNet/sequential_2/residual_block_2/instance_normalization_8/moments/mean/reduction_indices", "shape": [2], "dtype": "int32"}, {"name": "unknown_17", "shape": [3, 3, 32, 64], "dtype": "float32"}, {"name": "unknown_18", "shape": [64], "dtype": "float32"}, {"name": "StatefulPartitionedCall/GeoFeatureNet/ResUNet/sequential_2/residual_block_2/instance_normalization_9/moments/mean/reduction_indices", "shape": [2], "dtype": "int32"}, {"name": "unknown_19", "shape": [3, 3, 64, 64], "dtype": "float32"}, {"name": "unknown_20", "shape": [64], "dtype": "float32"}, {"name": "unknown_21", "shape": [1, 1, 32, 64], "dtype": "float32"}, {"name": "unknown_22", "shape": [64], "dtype": "float32"}, {"name": "StatefulPartitionedCall/GeoFeatureNet/ResUNet/sequential_2/residual_block_2/instance_normalization_10/moments/mean/reduction_indices", "shape": [2], "dtype": "int32"}, {"name": "StatefulPartitionedCall/GeoFeatureNet/ResUNet/sequential_2/residual_block_2/instance_normalization_10/moments/variance/reduction_indices", "shape": [2], "dtype": "int32"}, {"name": "StatefulPartitionedCall/GeoFeatureNet/ResUNet/sequential_2/residual_block_2/instance_normalization_10/batchnorm/add/y", "shape": [], "dtype": "float32"}, {"name": "unknown_27", "shape": [1, 1, 64, 64], "dtype": "float32"}, {"name": "unknown_28", "shape": [64], "dtype": "float32"}, {"name": "StatefulPartitionedCall/GeoFeatureNet/ResUNet/sequential_2/residual_block_3/instance_normalization_13/moments/mean/reduction_indices", "shape": [2], "dtype": "int32"}, {"name": "StatefulPartitionedCall/GeoFeatureNet/ResUNet/concatenate/concat_3/axis", "shape": [], "dtype": "int32"}, {"name": "unknown_121", "shape": [1, 1, 192, 96], "dtype": "float32"}, {"name": "unknown_122", "shape": [96], "dtype": "float32"}, {"name": "StatefulPartitionedCall/GeoFeatureNet/ResUNet/sequential_10/residual_block_18/instance_normalization_58/moments/mean/reduction_indices", "shape": [2], "dtype": "int32"}, {"name": "StatefulPartitionedCall/GeoFeatureNet/ResUNet/sequential_10/residual_block_18/instance_normalization_58/moments/variance/reduction_indices", "shape": [2], "dtype": "int32"}, {"name": "StatefulPartitionedCall/GeoFeatureNet/ResUNet/sequential_10/residual_block_18/instance_normalization_58/batchnorm/add/y", "shape": [], "dtype": "float32"}, {"name": "unknown_127", "shape": [1, 1, 96, 96], "dtype": "float32"}, {"name": "unknown_128", "shape": [96], "dtype": "float32"}, {"name": "StatefulPartitionedCall/GeoFeatureNet/ResUNet/sequential_10/residual_block_19/instance_normalization_61/moments/mean/reduction_indices", "shape": [2], "dtype": "int32"}, {"name": "StatefulPartitionedCall/GeoFeatureNet/ResUNet/sequential_10/residual_block_19/instance_normalization_61/moments/variance/reduction_indices", "shape": [2], "dtype": "int32"}, {"name": "StatefulPartitionedCall/GeoFeatureNet/ResUNet/sequential_10/residual_block_19/instance_normalization_61/batchnorm/add/y", "shape": [], "dtype": "float32"}, {"name": "StatefulPartitionedCall/GeoFeatureNet/ResUNet/upsample/strided_slice_4/stack", "shape": [1], "dtype": "int32"}, {"name": "StatefulPartitionedCall/GeoFeatureNet/ResUNet/upsample/strided_slice_4/stack_1", "shape": [1], "dtype": "int32"}, {"name": "StatefulPartitionedCall/GeoFeatureNet/ResUNet/upsample/strided_slice_4/stack_2", "shape": [1], "dtype": "int32"}, {"name": "StatefulPartitionedCall/GeoFeatureNet/ResUNet/upsample/Const_4", "shape": [2], "dtype": "int32"}, {"name": "StatefulPartitionedCall/GeoFeatureNet/ResUNet/sequential_1/residual_block_1/instance_normalization_6/moments/variance/reduction_indices", "shape": [2], "dtype": "int32"}, {"name": "StatefulPartitionedCall/GeoFeatureNet/ResUNet/sequential_1/residual_block_1/instance_normalization_6/batchnorm/add/y", "shape": [], "dtype": "float32"}, {"name": "StatefulPartitionedCall/GeoFeatureNet/ResUNet/sequential_1/residual_block_1/instance_normalization_5/moments/variance/reduction_indices", "shape": [2], "dtype": "int32"}, {"name": "StatefulPartitionedCall/GeoFeatureNet/ResUNet/sequential_1/residual_block_1/instance_normalization_5/batchnorm/add/y", "shape": [], "dtype": "float32"}, {"name": "StatefulPartitionedCall/GeoFeatureNet/ResUNet/sequential_1/residual_block_1/instance_normalization_5/moments/mean/reduction_indices", "shape": [2], "dtype": "int32"}, {"name": "unknown_11", "shape": [3, 3, 32, 32], "dtype": "float32"}, {"name": "unknown_12", "shape": [32], "dtype": "float32"}, {"name": "StatefulPartitionedCall/GeoFeatureNet/ResUNet/sequential_1/residual_block_1/instance_normalization_6/moments/mean/reduction_indices", "shape": [2], "dtype": "int32"}, {"name": "unknown_13", "shape": [3, 3, 32, 32], "dtype": "float32"}, {"name": "unknown_14", "shape": [32], "dtype": "float32"}, {"name": "StatefulPartitionedCall/GeoFeatureNet/ResUNet/sequential_1/residual_block_1/instance_normalization_7/moments/variance/reduction_indices", "shape": [2], "dtype": "int32"}, {"name": "StatefulPartitionedCall/GeoFeatureNet/ResUNet/sequential_1/residual_block_1/instance_normalization_7/batchnorm/add/y", "shape": [], "dtype": "float32"}, {"name": "StatefulPartitionedCall/GeoFeatureNet/ResUNet/sequential_1/residual_block/instance_normalization_3/moments/variance/reduction_indices", "shape": [2], "dtype": "int32"}, {"name": "StatefulPartitionedCall/GeoFeatureNet/ResUNet/sequential_1/residual_block/instance_normalization_3/batchnorm/add/y", "shape": [], "dtype": "float32"}, {"name": "StatefulPartitionedCall/GeoFeatureNet/ResUNet/sequential_1/residual_block/instance_normalization_2/moments/variance/reduction_indices", "shape": [2], "dtype": "int32"}, {"name": "StatefulPartitionedCall/GeoFeatureNet/ResUNet/sequential_1/residual_block/instance_normalization_2/batchnorm/add/y", "shape": [], "dtype": "float32"}, {"name": "StatefulPartitionedCall/GeoFeatureNet/ResUNet/sequential_1/residual_block/instance_normalization_2/moments/mean/reduction_indices", "shape": [2], "dtype": "int32"}, {"name": "unknown_5", "shape": [3, 3, 16, 32], "dtype": "float32"}, {"name": "unknown_6", "shape": [32], "dtype": "float32"}, {"name": "StatefulPartitionedCall/GeoFeatureNet/ResUNet/sequential_1/residual_block/instance_normalization_3/moments/mean/reduction_indices", "shape": [2], "dtype": "int32"}, {"name": "unknown_7", "shape": [3, 3, 32, 32], "dtype": "float32"}, {"name": "unknown_8", "shape": [32], "dtype": "float32"}, {"name": "unknown_9", "shape": [1, 1, 16, 32], "dtype": "float32"}, {"name": "unknown_10", "shape": [32], "dtype": "float32"}, {"name": "StatefulPartitionedCall/GeoFeatureNet/ResUNet/sequential_1/residual_block/instance_normalization_4/moments/mean/reduction_indices", "shape": [2], "dtype": "int32"}, {"name": "StatefulPartitionedCall/GeoFeatureNet/ResUNet/sequential_1/residual_block/instance_normalization_4/moments/variance/reduction_indices", "shape": [2], "dtype": "int32"}, {"name": "StatefulPartitionedCall/GeoFeatureNet/ResUNet/sequential_1/residual_block/instance_normalization_4/batchnorm/add/y", "shape": [], "dtype": "float32"}, {"name": "unknown_15", "shape": [1, 1, 32, 32], "dtype": "float32"}, {"name": "unknown_16", "shape": [32], "dtype": "float32"}, {"name": "StatefulPartitionedCall/GeoFeatureNet/ResUNet/sequential_1/residual_block_1/instance_normalization_7/moments/mean/reduction_indices", "shape": [2], "dtype": "int32"}, {"name": "StatefulPartitionedCall/GeoFeatureNet/ResUNet/concatenate/concat_4/axis", "shape": [], "dtype": "int32"}, {"name": "unknown_133", "shape": [1, 1, 128, 64], "dtype": "float32"}, {"name": "unknown_134", "shape": [64], "dtype": "float32"}, {"name": "StatefulPartitionedCall/GeoFeatureNet/ResUNet/sequential_11/residual_block_20/instance_normalization_64/moments/mean/reduction_indices", "shape": [2], "dtype": "int32"}, {"name": "StatefulPartitionedCall/GeoFeatureNet/ResUNet/sequential_11/residual_block_20/instance_normalization_64/moments/variance/reduction_indices", "shape": [2], "dtype": "int32"}, {"name": "StatefulPartitionedCall/GeoFeatureNet/ResUNet/sequential_11/residual_block_20/instance_normalization_64/batchnorm/add/y", "shape": [], "dtype": "float32"}, {"name": "unknown_139", "shape": [1, 1, 64, 64], "dtype": "float32"}, {"name": "unknown_140", "shape": [64], "dtype": "float32"}, {"name": "StatefulPartitionedCall/GeoFeatureNet/ResUNet/sequential_11/residual_block_21/instance_normalization_67/moments/mean/reduction_indices", "shape": [2], "dtype": "int32"}, {"name": "StatefulPartitionedCall/GeoFeatureNet/ResUNet/sequential_11/residual_block_21/instance_normalization_67/moments/variance/reduction_indices", "shape": [2], "dtype": "int32"}, {"name": "StatefulPartitionedCall/GeoFeatureNet/ResUNet/sequential_11/residual_block_21/instance_normalization_67/batchnorm/add/y", "shape": [], "dtype": "float32"}, {"name": "StatefulPartitionedCall/GeoFeatureNet/ResUNet/upsample/strided_slice_5/stack", "shape": [1], "dtype": "int32"}, {"name": "StatefulPartitionedCall/GeoFeatureNet/ResUNet/upsample/strided_slice_5/stack_1", "shape": [1], "dtype": "int32"}, {"name": "StatefulPartitionedCall/GeoFeatureNet/ResUNet/upsample/strided_slice_5/stack_2", "shape": [1], "dtype": "int32"}, {"name": "StatefulPartitionedCall/GeoFeatureNet/ResUNet/upsample/Const_5", "shape": [2], "dtype": "int32"}, {"name": "StatefulPartitionedCall/GeoFeatureNet/ResUNet/sequential/instance_normalization/moments/variance/reduction_indices", "shape": [2], "dtype": "int32"}, {"name": "StatefulPartitionedCall/GeoFeatureNet/ResUNet/sequential/instance_normalization/batchnorm/add/y", "shape": [], "dtype": "float32"}, {"name": "unknown", "shape": [3, 3, 3, 16], "dtype": "float32"}, {"name": "unknown_0", "shape": [16], "dtype": "float32"}, {"name": "StatefulPartitionedCall/GeoFeatureNet/ResUNet/sequential/instance_normalization/moments/mean/reduction_indices", "shape": [2], "dtype": "int32"}, {"name": "unknown_1", "shape": [3, 3, 16, 16], "dtype": "float32"}, {"name": "unknown_2", "shape": [16], "dtype": "float32"}, {"name": "StatefulPartitionedCall/GeoFeatureNet/ResUNet/instance_normalization_1/moments/variance/reduction_indices", "shape": [2], "dtype": "int32"}, {"name": "StatefulPartitionedCall/GeoFeatureNet/ResUNet/instance_normalization_1/batchnorm/add/y", "shape": [], "dtype": "float32"}, {"name": "unknown_3", "shape": [1, 1, 3, 16], "dtype": "float32"}, {"name": "unknown_4", "shape": [16], "dtype": "float32"}, {"name": "StatefulPartitionedCall/GeoFeatureNet/ResUNet/instance_normalization_1/moments/mean/reduction_indices", "shape": [2], "dtype": "int32"}, {"name": "StatefulPartitionedCall/GeoFeatureNet/ResUNet/concatenate/concat_5/axis", "shape": [], "dtype": "int32"}, {"name": "unknown_145", "shape": [1, 1, 80, 32], "dtype": "float32"}, {"name": "unknown_146", "shape": [32], "dtype": "float32"}, {"name": "StatefulPartitionedCall/GeoFeatureNet/ResUNet/sequential_12/residual_block_22/instance_normalization_70/moments/mean/reduction_indices", "shape": [2], "dtype": "int32"}, {"name": "StatefulPartitionedCall/GeoFeatureNet/ResUNet/sequential_12/residual_block_22/instance_normalization_70/moments/variance/reduction_indices", "shape": [2], "dtype": "int32"}, {"name": "StatefulPartitionedCall/GeoFeatureNet/ResUNet/sequential_12/residual_block_22/instance_normalization_70/batchnorm/add/y", "shape": [], "dtype": "float32"}, {"name": "unknown_151", "shape": [1, 1, 32, 32], "dtype": "float32"}, {"name": "unknown_152", "shape": [32], "dtype": "float32"}, {"name": "StatefulPartitionedCall/GeoFeatureNet/ResUNet/sequential_12/residual_block_23/instance_normalization_73/moments/mean/reduction_indices", "shape": [2], "dtype": "int32"}, {"name": "StatefulPartitionedCall/GeoFeatureNet/ResUNet/sequential_12/residual_block_23/instance_normalization_73/moments/variance/reduction_indices", "shape": [2], "dtype": "int32"}, {"name": "StatefulPartitionedCall/GeoFeatureNet/ResUNet/sequential_12/residual_block_23/instance_normalization_73/batchnorm/add/y", "shape": [], "dtype": "float32"}, {"name": "unknown_163", "shape": [1, 1, 32, 16], "dtype": "float32"}, {"name": "unknown_164", "shape": [16], "dtype": "float32"}, {"name": "StatefulPartitionedCall/GeoFeatureNet/l2_normalize/Sum/reduction_indices", "shape": [], "dtype": "int32"}, {"name": "StatefulPartitionedCall/GeoFeatureNet/l2_normalize/Maximum/y", "shape": [], "dtype": "float32"}, {"name": "StatefulPartitionedCall/GeoFeatureNet/StatefulPartitionedCall/Tile/multiples", "shape": [4], "dtype": "int32"}, {"name": "Func/StatefulPartitionedCall/GeoFeatureNet/StatefulPartitionedCall/input/_175", "shape": [16, 3], "dtype": "float32"}, {"name": "StatefulPartitionedCall/GeoFeatureNet/StatefulPartitionedCall/ones_like/Const", "shape": [], "dtype": "float32"}, {"name": "StatefulPartitionedCall/GeoFeatureNet/StatefulPartitionedCall/mul/y", "shape": [], "dtype": "float32"}, {"name": "StatefulPartitionedCall/GeoFeatureNet/StatefulPartitionedCall/add/y", "shape": [], "dtype": "float32"}]}]}